weights/100_epochs_lemmatized_weights.pth (torch, 370677 bytes, 5 tensors)

embed.weight f4 [2227, 20]
000000 bc a1 96 3b f3 47 f0 bb 9b 84 d1 3a f0 19 eb 3a
       0.004596917 -0.0073327958 0.0015984954 0.0017936807
000010 6d c5 0e 3c 3b f7 9e 3b 20 4a f5 39 09 f5 80 bb
       0.008714062 0.0048512495 0.0004678527 -0.0039354605
000020 35 b1 17 bb cb 97 57 ba 14 ff ea 3b 2a d9 a8 ba
       -0.0023146395 -0.0008224218 0.007171521 -0.0012882103
000030 55 3a 67 bb df b9 e9 3a a8 dc 97 ba 8e f3 45 bb
       -0.0035282571 0.0017831883 -0.0011586146 -0.0030204984
000040 78 70 6d 3b 9e 33 05 3b 8c fc 45 3b 6e 82 33 3b
       0.0036230367 0.0020324956 0.0030210344 0.0027390975
000050 db 1a 8f 3e 55 c1 86 3e 65 d0 21 be 79 9e fd 3e
       0.27950177 0.26319376 -0.15802152 0.49534968
000060 e9 77 b7 3e 59 4c c9 bd 7a 32 a6 3d 47 f5 db be
       0.35833672 -0.09829015 0.081150964 -0.4296057
000070 4c 01 d8 bd 81 03 53 bf 71 b3 1a 3e 26 92 e3 bc
       -0.10547122 -0.8242722 0.15107514 -0.02777965
000080 8b 3a 7d 3e 3d 93 c9 bc 53 fd d6 bc 59 29 1c be
       0.24729364 -0.024606341 -0.026243841 -0.15250148
000090 2a bb b9 3d 96 a2 85 3e 66 30 89 bf 83 b2 5c 3e
       0.09068902 0.26100606 -1.0717895 0.21552472
0000a0 92 b9 a3 3e 4d 86 36 3e 0a 43 02 bf 21 e8 3b 3e
       0.31977516 0.17824669 -0.50883543 0.18350269
0000b0 00 a0 12 be f9 14 e9 3c 72 dc ca be cb 61 5a bd
       -0.14318848 0.028452383 -0.3962131 -0.05331592
0000c0 1a 10 63 3e 21 4b 42 3f 4e 1a 37 3e 57 58 9a 3e
       0.22174111 0.7589589 0.17881128 0.30145523
0000d0 89 9a b5 3e f8 be 12 bf 86 3d 0e be 67 ad 5a bf
       0.35469463 -0.57322645 -0.13890657 -0.8542084
0000e0 63 d0 12 3e 1a e3 b2 bc 6b 1d ef bd 25 b1 68 be
       0.14337306 -0.021836806 -0.11675533 -0.22723825
0000f0 bd f4 87 3e ff 05 85 bd c5 64 29 be 3a 1f d1 3e
       0.26553908 -0.06495284 -0.16542347 0.40844136
000100 84 51 03 3f ba 8b eb 3e 91 3a 44 be 1d 36 e2 3e
       0.5129626 0.4600504 -0.19162966 0.4418191
000110 e1 40 79 bd 12 ad 00 bf 2a 84 db be 0a ea e4 be
       -0.06085289 -0.50264084 -0.4287427 -0.44709808
000120 18 be 8a be d3 95 8a 3e 3c 47 03 3f 7e 79 f8 3e
       -0.27098155 0.27067432 0.5128057 0.4853019
000130 97 1f 02 3f 97 58 6c bd f9 76 05 bf de cd f0 bd
       0.5082945 -0.057701673 -0.5213466 -0.11758016
000140 06 56 a7 be 9f 8c 2c bf e3 b8 40 3f f3 80 a1 3e
       -0.32682818 -0.6740207 0.75282115 0.31543693
000150 47 a5 c5 3e 64 ce 60 be e5 2a d1 bc bd fe d6 3e
       0.3860266 -0.21953732 -0.025533149 0.41991225
000160 1b 3d 6b be 0f c7 a8 be dc 8a cc be f3 85 b0 be
       -0.22972529 -0.3296437 -0.3994969 -0.34477195
000170 f8 21 c5 bd e1 26 21 3e f6 82 3e 3f d9 d5 57 3e
       -0.0962562 0.15737487 0.7441858 0.2107767
000180 79 65 a2 be a3 e9 85 3e 70 4f 10 bf 83 f5 e4 be
       -0.31718042 0.26154813 -0.5637121 -0.4471856
000190 ad a9 96 3e 6c 6f 0a 3d 25 92 a7 be c1 13 c1 3e
       0.29426327 0.033797666 -0.32728687 0.37710384
0001a0 e6 4d c0 be 79 b9 2e 3e ff 6c c4 3e 07 ee db bc
       -0.37559432 0.1706294 0.38364407 -0.026846899
0001b0 8b 6f 9a 3e 75 a2 8e be 6f a2 3f 3d 97 fd a1 3e
       0.30163226 -0.2785832 0.046785768 0.31638786
0001c0 33 fe 53 3d 27 87 e4 be e8 06 cc 3e 4e 4f ed 3b
       0.051756095 -0.44634363 0.3984902 0.00724212
0001d0 df 15 a9 3c 46 f6 69 3e a8 bb 7f bd c3 6e 60 3d
       0.020640312 0.22847852 -0.062434822 0.05479313
0001e0 e1 4b de be 10 00 06 3f d8 e4 d2 be 0d 0e 83 be
       -0.43417266 0.52343845 -0.4119022 -0.25596657
0001f0 20 45 06 bf 3c 19 06 bf 69 84 fb be 52 28 00 3f
       -0.52449226 -0.52382255 -0.49124458 0.50061524
000200 9b 29 db be e8 82 21 be 08 9f eb be 38 c1 ab 3e
       -0.4280518 -0.15772593 -0.4601977 0.33545852
000210 70 30 f6 3e 8c 1f eb be 94 b9 03 3f dd 75 05 bf
       0.4808383 -0.45922506 0.51455045 -0.5213297
000220 1a 62 fe be 4c 7a 01 3f 66 6c 9a be 68 16 fe be
       -0.4968422 0.50577235 -0.30160826 -0.4962647
000230 99 8e 64 3e ff 85 70 3e f0 1b 34 3d ce 70 f0 3d
       0.22320022 0.23488615 0.043971956 0.11740266
000240 62 74 cc bd 0e a6 3b be 28 84 29 3e 60 53 9b be
       -0.09983136 -0.18325064 0.1655432 -0.30337048
000250 95 f5 1c bd 55 fd 52 bd a2 f9 07 3d 8d 6f 47 bc
       -0.038320143 -0.051511128 0.033197053 -0.012172592
000260 1a 4e 25 3e 2b 70 6d be d9 63 0e 3e 78 dd b3 bd
       0.16143075 -0.2318732 0.13905276 -0.08782476
000270 32 24 84 3d e4 70 e0 bb 00 f7 e5 bd e8 41 c2 3b
       0.06452216 -0.006849395 -0.11228752 0.005928267
000280 d6 0b 13 3f be 6e 30 bf f5 91 ff 3e 53 e5 2b 3d
       0.57439935 -0.6891898 0.49916044 0.041966747
000290 a8 88 bd bc 01 73 04 3e 58 97 7a be 50 1f 6f be
       -0.023136452 0.12934496 -0.24471796 -0.23351789
0002a0 04 14 cb 3d 0e cf 1f 3d 17 76 6f 3d 1f 29 92 3e
       0.09915927 0.039015822 0.05846223 0.28546998
0002b0 1d f5 5b 3d fe 48 94 be 59 4b 5d 3c 54 7b 05 be
       0.053700555 -0.2896194 0.013506734 -0.13035327
0002c0 39 fb 13 be f8 04 0d 3e 68 2d 16 be 86 46 f4 3e
       -0.14451303 0.13771427 -0.14665759 0.47710055
0002d0 ec fb 05 bf 39 fd 9c 3d 70 11 03 3f 22 53 7b be
       -0.5233753 0.07665486 0.5119848 -0.24543431
0002e0 34 18 5f 3d 2a c0 ef be 1f 33 b3 3e b7 20 33 3d
       0.05446644 -0.46826297 0.3499994 0.04373237
0002f0 54 24 b8 bc 38 ae be 3c e2 00 02 3f c6 4f ee bc
       -0.02247826 0.023276433 0.507826 -0.029090773
000300 3b 51 4c be 9f 35 b3 3e 8c 31 03 bf 78 83 77 3d
       -0.19952862 0.35001847 -0.5124748 0.060428113
000310 79 d7 b7 bd 8f 4d 2e 3e 2e 79 03 3f d0 b3 00 3f
       -0.08976645 0.17021774 0.5135678 0.5027437
000320 42 10 75 be c3 d9 04 3f 59 da fa bd 10 1d c1 be
       -0.23931983 0.5189478 -0.12248678 -0.37717485
000330 d0 55 9b 3e 23 bc f3 3e 17 f0 f7 be 75 0d 0e bc
       0.30338907 0.47604474 -0.48425362 -0.008670201
000340 04 9d c4 3e 90 e0 7e be 9b 18 06 3f 61 85 01 bf
       0.38401043 -0.24890351 0.52381295 -0.50594145
000350 a8 21 05 3f 55 dd 04 3f 82 7e c0 be ae 0a 02 3f
       0.5200448 0.51900226 -0.37596518 0.50797546
000360 df 78 ea 3e a2 ef e9 bc 88 af cf be d0 80 03 3f
       0.45795342 -0.028556649 -0.40563607 0.5136843
000370 17 b7 c7 be a2 4e bb 3e 8c 3c ff 3e 4c 77 c2 be
       -0.39006874 0.3658343 0.4985088 -0.3798164
000380 c1 2a 4f be 5c ee 06 3f 32 67 00 3f 71 e8 82 be
       -0.20231153 0.5270746 0.50157464 -0.25567964
000390 3d 6f 05 bf ec 36 03 3f b1 70 02 3f f3 58 dc be
       -0.5212286 0.5125568 0.50953203 -0.43036613
0003a0 d8 af 08 3e 5e 5e d9 3e fd 39 85 3e 71 17 80 be
       0.13348329 0.4245481 0.26020804 -0.25017884
0003b0 48 f3 f8 3e 60 79 df 3e bd 66 94 3c 8a ac 4d 3e
       0.4862311 0.4364729 0.018115396 0.2008535
0003c0 4d ed 05 3f c8 14 d0 bd a7 5c 09 3f 76 ea 08 be
       0.5231522 -0.10160214 0.53657 -0.1337069
0003d0 12 cc e2 be 17 04 95 bd 6c ef 7c 3e 25 82 61 3e
       -0.44296318 -0.07276171 0.24700707 0.22022302
0003e0 53 d5 1e 3f 73 40 27 be 70 4d 04 3f ab 54 0b be
       0.62044257 -0.16333179 0.5168066 -0.13606517
0003f0 a4 56 ea 3e ba 12 e3 3e 95 b1 d1 be 2e 19 1e bc
       0.45769227 0.44350225 -0.40955797 -0.009649558

fc1.weight f4 [20, 40]
000000 a4 9a a7 3f 67 8c 2b 3e f7 93 a7 bf 1e 13 10 40
       1.3094068 0.16752778 -1.309203 2.2511668
000010 cc fa 70 3f 9b 1f 6e 40 63 99 a9 bf aa 92 ac 3f
       0.94132686 3.720679 -1.3249935 1.3482258
000020 8a fb 10 c0 be 8f 73 3f 40 b0 43 3f 15 5d 27 bf
       -2.2653527 0.9514121 0.7644081 -0.65376407
000030 91 91 83 3b a8 a3 99 bf 9f f4 60 40 47 82 26 bf
       0.0040151556 -1.2003069 3.5149305 -0.6504254
000040 62 e3 ef 3a de 85 ad 3f 0d da 8d bd e3 b7 e5 bf
       0.0018302018 1.3556478 -0.069263555 -1.7946743
000050 a4 c4 32 3f 7e a3 e8 3e 1d 57 9b bf 24 2e 82 3f
       0.698313 0.45437235 -1.213596 1.0170331
000060 b7 03 a8 be c8 62 51 3f 17 46 8c 3f 53 0c 82 3e
       -0.32815334 0.81791353 1.095889 0.25400028
000070 30 e1 a0 be c3 2c 94 3e ea 32 17 be 43 1e 19 3e
       -0.31421804 0.289404 -0.14765516 0.1495295
000080 98 5b fd be c2 54 66 bf 03 db 5a be dc 5e 9e be
       -0.49483943 -0.8997308 -0.21372609 -0.30931747
000090 52 49 d7 be 68 1a 07 3e a0 9a 1e 3f 3d fa 92 3d
       -0.42048126 0.13193667 0.6195469 0.071766354
0000a0 a2 38 ba be a9 99 35 3f 66 f0 18 40 22 ff 5e be
       -0.36371332 0.7093759 2.3896728 -0.21777013
0000b0 39 79 08 c0 da e4 0d 3e c9 12 95 bf 16 84 04 bf
       -2.1323988 0.13856831 -1.1646358 -0.5176405
0000c0 0a 68 dc bf 4d 0c 4f c0 aa d8 a5 bf 73 74 34 be
       -1.721925 -3.2351258 -1.2956746 -0.17622547
0000d0 8b 4a 18 be 41 d9 a9 3e 60 8c 9b bc 5d 7d 83 3f
       -0.14872186 0.33173564 -0.018987834 1.0272633
0000e0 38 d2 4d 40 84 61 c6 3f 00 2c 0e bf 47 e4 cc 3f
       3.2159557 1.549851 -0.5553589 1.6007165
0000f0 24 c7 b5 3e 5c 7f 05 3f 0a a1 dc be 28 94 83 3e
       0.35503495 0.5214746 -0.43091613 0.25698972
000100 ba 2c 27 3e c7 35 2d 40 88 96 63 be 05 98 35 be
       0.16325656 2.7064073 -0.22225392 -0.17733772
000110 f8 a3 b1 3e a3 f3 61 bc 11 5b fe bd c2 0a ab be
       0.3469541 -0.013790998 -0.12419713 -0.33406645
000120 f2 63 72 bf 89 84 55 bf f0 e1 82 3e d3 af 29 3f
       -0.94683754 -0.8340536 0.25563002 0.6628391
000130 5b 65 1b be d9 73 32 3e 18 60 79 3f 41 d1 c2 bd
       -0.15175383 0.17427005 0.9741225 -0.09512568
000140 e8 ec e5 3f 07 b6 9a be 90 3b 28 bf 54 df d6 bf
       1.7962923 -0.30217 -0.65715885 -1.6786904
000150 7c 6c 81 40 de eb c3 3d ad 22 5c 3e 3d 98 d4 bf
       4.0444927 0.095664725 0.21497603 -1.660896
000160 b5 66 ca bf e3 31 8f bf a5 68 3a bf b0 5a 7b bf
       -1.5812594 -1.1187099 -0.72815925 -0.98185253
000170 34 ba 6a 3e bf 1a 03 3f 16 b0 65 c0 42 ce 3b be
       0.22922593 0.51212686 -3.5888724 -0.183404
000180 1d 55 49 bf de 25 1c 40 dd f5 db 3e 70 00 67 3f
       -0.786455 2.4398112 0.42961016 0.9023504
000190 63 76 d4 3d 43 c5 d1 3d f0 1a 96 3f ff d2 34 bf
       0.10374143 0.10242703 1.1726971 -0.70634454
0001a0 ee bd 55 3f 34 3e 8d bf 25 36 4f be 56 dd 76 be
       0.83492935 -1.1034608 -0.20235498 -0.2410787
0001b0 d6 f2 43 3e 21 ed 33 bf f4 f7 62 3f 4d a1 45 bf
       0.19135603 -0.70283705 0.88659596 -0.7719925
0001c0 f3 3c db 3e 77 73 08 3f 1e 72 33 3e bd 89 7a be
       0.42819938 0.53301185 0.17524001 -0.24466605
0001d0 0c fd 5d 3f 3b 53 c1 3d 46 7a 71 bf e8 ec 06 3f
       0.86714244 0.09439703 -0.943272 0.5270524
0001e0 a0 58 3b c0 b1 08 c2 3e f6 53 dc bf 7a 24 19 c0
       -2.9272842 0.37897256 -1.7213123 -2.3928514
0001f0 bb 16 70 bf 28 82 f2 3e dd 11 69 bf 65 84 d9 bc
       -0.93784684 0.47364926 -0.9104288 -0.026552388
000200 05 23 a1 bf 0f 5e fb 3f 98 e3 90 bf bd 3a 3c c0
       -1.2588812 1.963808 -1.1319456 -2.941085
000210 94 5a 06 bf f6 bd 5e 3f 47 35 eb 3e fd 59 1d 40
       -0.5248196 0.8700861 0.45939085 2.4586174
000220 72 5d b9 bf 1a ec b2 3f 12 11 51 bf 5b dd 5c bf
       -1.4481642 1.3978302 -0.8166667 -0.8627526
000230 8b 96 b8 3e e8 56 88 3e 3c 43 4f bf e0 7f 7a 3f
       0.36052355 0.26628804 -0.80961967 0.9785137
000240 05 0e 9d 3e cc 98 df 3e 66 d9 79 3e 44 3d 28 bf
       0.3067476 0.43671262 0.24399337 -0.65718484
000250 af 66 23 3e 1d f3 03 be 67 f3 04 be 9b 33 df be
       0.1595714 -0.12885709 -0.12983476 -0.4359406
000260 e8 b4 16 bf fb 82 9d 3e 24 64 39 3f 00 cb c7 3e
       -0.5886979 0.30763993 0.7241843 0.39022064
000270 95 d0 e0 bd d7 03 6b 3f fd af cb 3d dc 13 cb be
       -0.10977284 0.91802734 0.099456765 -0.3966359
000280 d4 c5 f9 3f 8b bc 83 3d 82 57 92 c0 b6 ec fc 3c
       1.9513497 0.06432446 -4.573182 0.030874591
000290 6e c5 06 be cc 36 67 bf 0d 86 a2 3f 25 2b 16 be
       -0.13161251 -0.9031799 1.2697159 -0.14664896
0002a0 57 be 84 3f 00 34 78 bf 1a f2 8f bf 6c dd a0 bc
       1.0370587 -0.96954346 -1.1245759 -0.019636832
0002b0 00 74 52 bf fb 9f 2c 3f 3e 83 68 be a8 65 02 c0
       -0.8220825 0.6743161 -0.22706315 -2.0374546
0002c0 f7 4f e8 3f 35 76 ad bf 14 f4 da be a0 7a 8c c0
       1.8149403 -1.3551699 -0.42764342 -4.389969
0002d0 22 03 58 3e df 59 1e bf 49 30 41 bf 15 10 43 3e
       0.21094945 -0.6185588 -0.754643 0.19049104
0002e0 e3 fc 6c 3f 1a 54 a9 be e9 c7 7f 3f f9 78 95 bb
       0.92573375 -0.33071977 0.99914414 -0.00456154
0002f0 e4 bb 3e 3d be 97 a7 bd c0 02 27 bf f1 58 05 3e
       0.046565905 -0.081832394 -0.6523857 0.1302221
000300 39 8f 7f 3d 6f a2 e4 3e 06 0e fc 3d 89 a0 81 3e
       0.062392447 0.44655177 0.12307362 0.2531779
000310 3a fe fb bd 18 0d f2 3e 83 a6 40 be 7d e3 d3 be
       -0.12304349 0.47275615 -0.18813519 -0.41384497
000320 44 fb 60 3f 12 49 c3 3f 65 b8 50 bf e3 25 27 bf
       0.878834 1.5256674 -0.81531364 -0.65292186
000330 76 01 8e bf 73 b0 27 40 0c 92 0e 3f 59 16 96 be
       -1.1094196 2.6201446 0.556916 -0.29313925
000340 e8 af 99 3e cf c6 09 3e e5 d9 86 bf 71 2f b0 be
       0.30017018 0.13454746 -1.0535246 -0.34411195
000350 9e 66 30 40 97 ab 03 40 62 3e 98 3e 44 40 1e 3f
       2.7562633 2.057348 0.29735094 0.6181681
000360 21 67 b1 3e 67 74 a7 bf 62 79 92 40 56 d3 c2 3f
       0.34648994 -1.3082398 4.577317 1.5220745
000370 fc a1 9b 3d 10 76 58 3f 21 9d 55 bf cf e1 66 3f
       0.075992554 0.8455515 -0.83442885 0.90188307
000380 18 b4 2e bf 31 a5 83 3f 93 7e 7d 3f 3a 26 d3 be
       -0.6824355 1.0284787 0.9902126 -0.41240102
000390 34 2b 95 be 2a b9 0a bf ee 48 79 be c5 b8 84 be
       -0.29134524 -0.5418879 -0.24344227 -0.25922218
0003a0 2b 1c ca be c2 bd 66 3e ae 21 00 3f c1 eb ac 3d
       -0.39474615 0.22533324 0.5005139 0.08443404
0003b0 19 fb 8b 3e 0b d9 4a 3f e4 4a 6b bd 9d 5c 0a bf
       0.2734001 0.7923743 -0.05744447 -0.54047567
0003c0 51 6f 69 3f e3 19 ca be 6a 7c 51 3f 61 6d 97 40
       0.9118548 -0.39472875 0.81830466 4.732102
0003d0 3d e1 62 3f 25 db 9c 3e e7 e8 eb be 4a 73 c0 3e
       0.88624936 0.30635944 -0.46076128 0.3758796
0003e0 00 a0 0d 40 1f 25 20 3c da 88 71 be 34 55 a4 be
       2.2128906 0.009774475 -0.23587361 -0.32096255
0003f0 87 14 84 3e ff 67 b2 3e 84 5c 80 bf 62 ef 7b 40
       0.2579691 0.34844968 -1.0028234 3.9364858

fc1.bias f4 [20]
000000 01 6a 12 3d a4 1c 0a 3d b2 2a e6 3d 8a 4c c9 bb
       0.035745624 0.03371872 0.11238612 -0.0061431574
000010 cd 43 35 3e d4 86 29 3d 3e 11 b7 3d 9a 37 70 3d
       0.17701645 0.041388348 0.089388356 0.058646776
000020 5e e8 29 3e 8b 25 92 3d 05 ac 65 bc fb 50 f7 3d
       0.16592547 0.07136067 -0.014018063 0.12075993
000030 ea d9 06 3e ed 38 a7 3d 25 ea 54 bd b7 17 ad bc
       0.13169065 0.081651546 -0.05198111 -0.021129472
000040 bc e1 94 bd 11 59 92 3d d9 11 e7 3d 6b 66 67 3d
       -0.07269618 0.07145894 0.11282701 0.056494158

fc2.weight f4 [2227, 20]
000000 83 17 db 3e ff 6d 2e 3f f0 37 21 3f 89 37 4e 3f
       0.42791376 0.6813659 0.6297598 0.8055349
000010 20 a5 3f be 99 95 92 3f ec f4 a8 3f 3e 31 0c 3f
       -0.18715334 1.1451904 1.3199744 0.5476264
000020 ee d6 19 39 10 8b c4 bf 1e 38 37 3f 42 9b bb bf
       0.00014671285 -1.5354939 0.71570003 -1.4656756
000030 db 9b 90 3e 13 9b ce bf 59 dc be bd df ce 09 bf
       0.28243908 -1.6141075 -0.09319372 -0.53831285
000040 a2 c5 5f 3f fa 5d c9 bf 87 78 1f c0 2d f7 95 3e
       0.8741094 -1.5731804 -2.4917314 0.29290143
000050 aa ed 99 bf 15 5b b7 bf d8 97 ad bf c4 59 a4 bf
       -1.2025654 -1.4324671 -1.3561964 -1.2839894
000060 ab 27 c9 bf e5 12 8c bf 88 46 c1 bf ff ef bc bf
       -1.5715231 -1.0943266 -1.509965 -1.4760741
000070 49 1e be bf 69 17 9b bf b2 e2 a3 bf 9c cb a8 bf
       -1.4852992 -1.2116519 -1.2803557 -1.3187137
000080 67 b1 b4 bf 58 6e c4 bf fa 46 d4 bf ac e2 c3 bf
       -1.4116639 -1.5346174 -1.658416 -1.530355
000090 ff bb ab bf 57 0a d1 bf 18 db cf bf 3e 8e c6 bf
       -1.3416747 -1.633128 -1.6238737 -1.5512159
0000a0 e6 7e 62 bf 02 8f e4 3e 86 71 13 bf 44 c6 f9 bf
       -0.8847488 0.44640356 -0.575951 -1.9513631
0000b0 d7 cc 6b bf b4 b7 18 3e 7b 54 d8 3e bd a2 b7 3e
       -0.92109436 0.14913827 0.42251953 0.35866347
0000c0 cc 79 34 bf 76 78 30 3f 71 f7 d5 3e d2 c4 e2 3e
       -0.7049835 0.6893381 0.41790345 0.44290787
0000d0 73 c1 7b 3e 12 d2 e2 3e 31 56 f9 be e4 da 60 3e
       0.24585514 0.44300896 -0.4869857 0.219585
0000e0 bd fd fe 3e 2e 36 40 bf b7 0a 83 3e cc ed 88 3e
       0.49802962 -0.7508267 0.25594112 0.26743925
0000f0 62 00 33 c0 59 ac 4b c0 e4 43 91 bc ed 1f 0a c0
       -2.7968984 -3.1823943 -0.017732568 -2.1581986
000100 58 a5 52 be 13 bd 7a c0 7f 4d b3 be c1 0e 20 bd
       -0.20570886 -3.9177902 -0.35020062 -0.03907657
000110 45 2e 03 bd 05 3a bb bf 6f a2 41 bf b5 35 89 bf
       -0.032026548 -1.4627081 -0.7563848 -1.0719515
000120 8e 68 dc bd 69 ec 2b bd b5 ac b7 bd 3e 21 d8 bd
       -0.1076213 -0.041973505 -0.08968488 -0.105532154
000130 aa 2a 17 bd 1e e1 a8 bd 91 ab a1 bd 98 50 e6 be
       -0.036905922 -0.08246063 -0.07894052 -0.44983363
000140 0e 05 c1 3d 97 6e 63 bd b5 65 a8 be dc 1d b7 3d
       0.09424792 -0.05552539 -0.32890096 0.08941242
000150 58 bf 99 bc 01 a7 82 3e b1 0e 69 3e b8 80 f5 bf
       -0.018767998 0.2551804 0.2275951 -1.9179907
000160 e1 52 00 be 9b e1 19 3e 6e aa 09 c0 3b 0d e2 3d
       -0.12531616 0.15027468 -2.1510272 0.1103768
000170 53 b5 3f bf b9 1a d3 3d ac d8 e7 bd dd d4 85 3b
       -0.74886054 0.10307831 -0.11320624 0.004084213
000180 04 21 2e bf 62 99 cd be c9 7f 19 be 88 7b e6 bf
       -0.6801913 -0.40156084 -0.14990152 -1.8006449
000190 07 1e 41 3e 34 8f 05 bd 1b df 84 3e 75 ad 8d 3e
       0.18859111 -0.032607272 0.25951466 0.276714
0001a0 f0 c2 2b 3e 60 6c 91 3e c7 67 a8 3e af 84 e7 3d
       0.16773582 0.28402996 0.32891676 0.11304604
0001b0 b7 2d b6 bd 36 49 38 3e 56 4b 7c c0 71 80 64 be
       -0.08895438 0.17996678 -3.9420981 -0.22314622
0001c0 b7 2d b1 bd cb d5 b9 bf be da e4 3d 85 0a 9f be
       -0.086512975 -1.451837 0.11174534 -0.31062713
0001d0 af b2 e7 be e8 d7 ea bf b2 a1 af bd a8 0f 5c bf
       -0.45253512 -1.8347139 -0.08575763 -0.8596139
0001e0 e9 b7 1f bd 3b ce 98 bd 91 23 e2 be d0 0e 34 be
       -0.03899375 -0.0746121 -0.4416776 -0.17583776
0001f0 58 d2 0e 3c 1a 2a 2d 3e bc 9a ee bc d2 46 9e be
       0.008717142 0.16910592 -0.029126517 -0.30913407
000200 da 6a 2b c0 02 d2 7a 3d 10 21 95 bd 9e e2 53 be
       -2.6783967 0.061235435 -0.07281697 -0.20691916
000210 2e 00 a2 be e5 62 36 bf 58 14 a5 c0 9e 1a 66 be
       -0.31640762 -0.7124465 -5.1587334 -0.22471091
000220 e7 01 04 bc 6e 3d 18 bf b5 93 6a c0 d2 cf 0d bd
       -0.008057094 -0.59468734 -3.6652653 -0.03462202
000230 63 5d d0 3e 28 c3 a8 3d ef 6e c0 be 5b e0 c1 bd
       0.40696248 0.08240348 -0.37584636 -0.094666205
000240 8d e4 3c 3e 17 e7 97 be bb d7 6a 3e 11 9a a6 c0
       0.1844656 -0.29668495 0.22933857 -5.206307
000250 34 03 55 c0 09 05 0c 3e fb 23 1f bd e0 82 71 3e
       -3.3283205 0.13673796 -0.038852673 0.23585081
000260 c5 68 5a be 4e 28 93 ba fd 46 b7 bf 36 7c 84 bf
       -0.21329029 -0.0011227222 -1.4318539 -1.0350406
000270 02 02 3e 3d 84 06 f7 3d b6 3e 34 be fb db 40 be
       0.046388634 0.1206179 -0.17602047 -0.18833916
000280 bb c2 ef 3c c7 59 02 bf 91 4b 5d c0 1e e3 4f 3c
       0.02926766 -0.5091824 -3.4577372 0.012688426
000290 5b 9c 56 be 40 27 8b 3d 1c 65 00 39 44 1f b0 3b
       -0.20958082 0.06794596 0.00012244697 0.005374821
0002a0 ba 19 27 c0 28 3a 68 bf 87 83 54 bf 0a 37 ee 3c
       -2.6109452 -0.9071374 -0.83013195 0.029078979
0002b0 34 5f 12 be 62 47 95 bd 0d 62 21 3c 11 9d d5 be
       -0.1429413 -0.07289006 0.009850037 -0.41721395
0002c0 b8 a9 a4 bf 84 2d a4 bf 11 0e b9 3a b1 c7 a5 be
       -1.2864294 -1.282639 0.0014118572 -0.32378915
0002d0 f6 10 4f c0 b3 87 dc bd 63 77 01 bf c8 bf e5 3c
       -3.2354102 -0.1076807 -0.50572795 0.02804555
0002e0 16 aa 68 c0 c2 cf cd 3c f1 ec 5d 3e 3b e5 45 bf
       -3.6353812 0.02512348 0.21672417 -0.773029
0002f0 15 32 e6 c0 32 06 b5 be ab 58 50 3e a4 2e 2b 3d
       -7.1936135 -0.3535629 0.20346324 0.041792527
000300 e0 24 c8 3c 1c 5c 39 3d e1 8e 9a 3d 7d 3b 81 3e
       0.024431646 0.045253858 0.07546783 0.25240698
000310 29 90 3e c0 52 88 75 3d b3 0f 58 3d a4 66 39 c0
       -2.9775488 0.05994446 0.052749347 -2.8968897
000320 09 f4 34 bf 34 42 0f bd 92 fb f9 bd 72 75 f9 bf
       -0.7068487 -0.034975246 -0.12206186 -1.9488966
000330 88 b4 d0 be 1e fa f7 bf ec 8d a6 c0 dc 04 e3 bd
       -0.40762734 -1.9373205 -5.2048244 -0.11084911
000340 41 f5 ba bd 92 57 12 bd 54 6e d1 bf 0d ee 91 bd
       -0.0912881 -0.035728045 -1.6361794 -0.07125483
000350 63 15 07 be 65 33 c5 bd c1 45 5a be 5b 9c b6 bf
       -0.13191752 -0.09628943 -0.21315672 -1.4266466
000360 3e e3 1f be c4 77 a1 bd 5b d6 03 bd 2f da 13 be
       -0.1561403 -0.078841716 -0.032186847 -0.14438699
000370 e0 bf 31 bd 4f 7f a5 be 3b 06 3d c0 7f a3 36 be
       -0.043395877 -0.3232369 -2.9535053 -0.17835806
000380 fc 08 50 be f2 17 f5 be 1d 92 b6 bd c2 b8 db bd
       -0.20315927 -0.4786983 -0.08914588 -0.10728599
000390 07 c1 95 3d f6 ca 93 c0 76 d9 df 3d 60 0d 37 be
       0.07312208 -4.6185255 0.10930149 -0.17876196
0003a0 cc f0 d9 bd 66 93 15 be 1d 32 db bd 83 e2 14 c0
       -0.106416315 -0.1460701 -0.10702918 -2.3263252
0003b0 1a 20 fa 3d 8a bd 49 bd b9 b5 b0 bd b9 b7 43 c0
       0.12213154 -0.049253024 -0.08628411 -3.0580885
0003c0 f2 fe c4 3c fa 9d ef bc f1 9a ed be f8 8b 45 c0
       0.024047349 -0.029250134 -0.46407273 -3.086668
0003d0 eb bb a0 bc a9 ae a2 bd 75 1b 08 bf b9 e9 a5 bd
       -0.019620856 -0.0794347 -0.53166896 -0.0810122
0003e0 f8 61 74 be a9 f5 1c be fa 5d e5 be 8f 91 c3 be
       -0.23865497 -0.15328087 -0.4479826 -0.3819699
0003f0 9f 6e 25 bf c6 eb ea be ac 98 5a be 54 dd c5 c0
       -0.6462192 -0.45883006 -0.21347302 -6.1832676

fc2.bias f4 [2227]
000000 77 bd 3a be f5 0f 19 c0 41 53 5b be 83 b0 cb bd
       -0.18236338 -2.391599 -0.21418478 -0.09945776
000010 95 d9 23 be d8 71 47 be dd a7 1e be e9 39 dc bd
       -0.1600097 -0.19477022 -0.15493722 -0.10753233
000020 86 34 e6 bd 70 a9 9f 3b 2c 8b 35 be f4 5a 1a be
       -0.11240487 0.0048724934 -0.17728871 -0.15073758
000030 e1 f7 27 be c0 6b b5 3c 34 26 32 be 4e 00 2a be
       -0.16403152 0.022146106 -0.17397386 -0.16601679
000040 93 d4 8c bd 77 0a 88 bd 50 97 45 be 79 80 86 be
       -0.06876483 -0.06642621 -0.19296002 -0.26269892
000050 05 15 d6 bd 14 06 4c be ff 07 71 be e0 f1 67 be
       -0.10453228 -0.19924194 -0.23538207 -0.22650862
000060 9a f7 1a bd 25 42 f2 bd 13 92 13 bd 37 88 74 be
       -0.037833788 -0.11829022 -0.03602798 -0.23880087
000070 dc aa f8 bd 70 fe 96 3c 98 79 93 bd 6e 63 13 be
       -0.12141964 0.018431872 -0.072009265 -0.14393398
000080 f1 6c ae bd 6d ca ac be 4a 4a 15 bd f5 39 d6 bd
       -0.08516873 -0.3374819 -0.0364478 -0.10460273
000090 8f 99 37 be 90 63 91 3d 3f 24 b1 3d fb c4 08 be
       -0.17929672 0.07099068 0.086494915 -0.13356392
0000a0 b5 c6 de 3c c6 1f a3 3d a5 ad 0b be 69 d6 fa bd
       0.02719436 0.07965045 -0.13640459 -0.12247927
0000b0 80 65 04 bd 8b 66 fa 3d a4 ad 66 bd 41 d3 01 3d
       -0.03232336 0.1222659 -0.05631794 0.031695608
0000c0 8f 33 4e 3d 8b 46 0f be f7 8e c3 3d 80 83 69 be
       0.05034214 -0.13991754 0.09548753 -0.2280407
0000d0 52 aa 01 be 68 63 43 bd 6e ea f4 bd 20 bd 93 be
       -0.12662628 -0.047702223 -0.119587764 -0.28855228
0000e0 36 00 23 be eb 4c 11 be 81 52 2e be f0 0a d1 bd
       -0.15918049 -0.14189498 -0.1702366 -0.10207164
0000f0 1b 41 49 be a7 a6 e9 bd 47 66 91 3c dd 33 62 bc
       -0.19653742 -0.114087395 0.017748965 -0.0138063105
000100 ec f7 eb 3c 48 5f 0a be d9 50 a6 bd dd 75 8c be
       0.028804742 -0.1351291 -0.08120889 -0.27433673
000110 da 54 47 be 51 56 c4 bc 96 32 20 3d 22 cf e7 bd
       -0.19465962 -0.02396694 0.039110743 -0.11318804
000120 5d 8d 33 bd 55 7f 7a bc a3 ae 44 3e 1d a5 bb be
       -0.043835986 -0.015289147 0.19207244 -0.3664941
000130 ea 0b 0e 3d e4 1f bf 3d 2c 50 f4 bd 3b 32 32 3e
       0.03467933 0.093322545 -0.11929354 0.17401974
000140 63 bc 38 bd 26 fc e2 bd 55 e7 5b be 7d 70 8a be
       -0.045101535 -0.1108325 -0.21474965 -0.27038947
000150 27 14 8e bd 19 4e 16 3e a4 fb 50 bd 6a 6e 11 be
       -0.069374375 0.1467823 -0.051021233 -0.14202276
000160 db 38 90 be 94 57 43 be 75 12 b3 bd f8 ac 7c be
       -0.28168377 -0.19076377 -0.08743755 -0.24675357
000170 59 85 3c 3e 2d bd 7a be f4 af 7b be 2e 08 1b be
       0.18410243 -0.24486227 -0.2457884 -0.15139839
000180 00 2a 03 be 02 fc 10 3c db cf 26 3e 11 ea 19 3d
       -0.1280899 0.008849146 0.16290228 0.03757674
000190 a1 19 8e be ee 19 32 be 9f a9 c2 be 72 32 d8 3c
       -0.27753928 -0.17392704 -0.38020036 0.026391242
0001a0 bf 5b 35 bd 33 95 ff bd cf 6e 79 be 37 71 a3 be
       -0.04427695 -0.12479629 -0.24358676 -0.31922314
0001b0 8d 51 b1 3c 2b c1 c4 bd c0 c0 f1 bd 4e 61 ae bd
       0.021645332 -0.09607156 -0.11804342 -0.08514653
0001c0 e2 bc 44 be c1 c4 8a bd 7c 10 53 bd c3 75 d9 bd
       -0.19212678 -0.06775809 -0.051529393 -0.106181644
0001d0 96 dd 0d 3e 9b d5 7e bd 5f b3 2d be 87 82 71 be
       0.1385406 -0.06221543 -0.16962956 -0.23584948
0001e0 1e 81 ae bc 96 79 40 3e 17 3a 4c 3c e5 5f 09 be
       -0.021301802 0.18796381 0.012465022 -0.13415487
0001f0 86 7b e9 bc e0 ba 72 bd 8c 38 b9 bd 59 af 23 be
       -0.028501283 -0.05926025 -0.090439886 -0.15984859
000200 75 da 04 bb 61 96 07 be f4 c2 d8 bd df 00 ad be
       -0.0020271812 -0.13240959 -0.10584059 -0.33789727
000210 41 5a d4 3d ef ee 94 3c 41 7e 07 be 88 c5 c2 bc
       0.10368777 0.018180339 -0.13231756 -0.02377583
000220 98 d2 b5 bd 6e 66 61 bc 06 3c 4c be ed 3e 9d 3d
       -0.08878058 -0.013757331 -0.19944772 0.07678018
000230 c0 c2 a2 be 00 be 70 be 59 96 35 be 43 76 64 be
       -0.31789207 -0.23509979 -0.17733134 -0.22310738
000240 7e 05 30 be ef b9 90 bc bb 77 07 be 3c 14 3c be
       -0.17189595 -0.017666785 -0.13229267 -0.18367094
000250 89 e6 9c bd aa dc 82 bd 82 de 1b be 78 47 8e be
       -0.076611586 -0.063897446 -0.15221599 -0.277889
000260 9b 0d ca 3c 60 61 04 be f8 a7 9a bc c4 87 cc 3c
       0.02466469 -0.1292777 -0.018878922 0.024967082
000270 25 89 4d bd ff 12 0f bd 6d 2b 4b be d2 5a aa 3d
       -0.05017962 -0.034930225 -0.19840784 0.08318104
000280 36 43 e1 bd 77 79 7a be 13 50 2c be 73 9d 3b be
       -0.109991476 -0.24460398 -0.16827421 -0.18321781
000290 a1 6a 1c be a8 0d d8 bd 65 fd 23 be 59 57 26 be
       -0.1527505 -0.1054948 -0.16014631 -0.16244258
0002a0 5c cb af 3b 8b 3f 16 bd 81 5c aa be 53 92 e8 bd
       0.0053648185 -0.036681693 -0.332737 -0.11356034
0002b0 7b be 1d be 98 56 64 be e4 48 82 be f2 ad b2 bd
       -0.15404694 -0.22298658 -0.25446236 -0.08724584
0002c0 ba fb 09 be e6 ba 69 bd a0 5f 1c be 93 d3 cd bd
       -0.13474932 -0.057063006 -0.15270853 -0.1005012
0002d0 3f 54 18 be 1d 96 e5 bd 63 24 36 3e cf 99 d4 bd
       -0.14875887 -0.112102725 0.17787318 -0.10380899
0002e0 b9 04 32 be 2d 9e c4 3d 65 cc da bd 26 ed 20 3e
       -0.17384614 0.09600482 -0.106835164 0.15715465
0002f0 98 f8 04 be f0 c8 3d be df a0 cc 3d 17 87 2a 3d
       -0.12985456 -0.18533683 0.09991621 0.041632738
000300 17 7a fc 3c 9e 2c 60 be b5 41 df bb b4 e4 47 be
       0.030819936 -0.2189202 -0.006813253 -0.19520837
000310 11 aa c8 bd 36 75 f5 bd 36 ef 59 be d1 0f 6e be
       -0.097980626 -0.11985247 -0.21282658 -0.23248221
000320 9c fe 08 bd b5 0f 1d bd 49 71 e8 bd 55 2c 86 3d
       -0.03344594 -0.038345058 -0.113497324 0.065514244
000330 cc 67 ec bc fd f2 04 be 00 11 46 be 67 23 16 be
       -0.028858088 -0.12983318 -0.19342422 -0.14661942
000340 82 9c 00 bc 0a b7 c3 bd 43 89 34 be 44 c0 c7 3c
       -0.007849814 -0.09556396 -0.17630486 0.024383672
000350 12 71 12 be ae 1d 20 be 96 cd b4 bd 98 c1 be bc
       -0.14300945 -0.15636322 -0.08828275 -0.023285672
000360 81 d7 49 3e d1 cb 40 be 77 0f bf bd 8e d7 81 be
       0.19711114 -0.1882775 -0.093291216 -0.25359768
000370 a3 37 ae be 58 4a 61 bd 14 5e 4e 3e 1f 40 0b 3d
       -0.34026822 -0.05500254 0.20153075 0.033996698
000380 16 49 62 bd a4 5d 36 be 15 5a 08 be 5a 92 39 be
       -0.05524548 -0.17809159 -0.13315614 -0.18122235
000390 ed a0 19 be 04 f8 12 3d 88 a0 af bc 72 1a fd 3d
       -0.15002795 0.035881057 -0.021438852 0.1235856
0003a0 d3 e2 45 bd 42 01 57 be 36 04 01 be ff fc 49 be
       -0.04831202 -0.20996574 -0.12599263 -0.19725417
0003b0 58 52 dd bd ee 11 5f be 46 92 2a be c3 36 50 be
       -0.108067214 -0.21784183 -0.16657361 -0.2033339
0003c0 e0 91 62 be 44 47 b7 bd 1e bf a5 bd 97 c8 42 be
       -0.2212596 -0.0894914 -0.08093093 -0.19021831
0003d0 03 3a 25 bd 1f 15 5e 3e e4 ae 92 bd ae b2 81 bd
       -0.040338527 0.21687745 -0.07162264 -0.063329086
0003e0 45 c3 a2 be 5a 13 ae 3d c2 91 2c bd 54 6c 54 3e
       -0.31789604 0.08499785 -0.042131193 0.20744449
0003f0 99 ee 09 be 8c 81 74 bd aa f8 5c be 43 04 5f 3d
       -0.13469924 -0.059693858 -0.21579233 0.054447424
