weights/100_epochs_clipped_weights.pth (torch, 370656 bytes, 5 tensors)

embed.weight f4 [2227, 20]
000000 ca e4 3a 3b de 9a dd 39 c4 c0 7c b9 c9 71 05 bc
       0.0028517717 0.0004226779 -0.00024104404 -0.008144804
000010 dc 5a 29 3c 66 e2 29 b9 df 38 0d bb 79 36 12 3b
       0.010336604 -0.00016201436 -0.002154879 0.00223103
000020 9d ff 02 39 5f 61 00 bb 30 7c 2d bb 1b 82 07 bc
       0.0001249299 -0.0019589288 -0.0026471727 -0.008270766
000030 fe b9 7c ba ad 2b 68 3b 99 88 bd b9 b8 99 84 3b
       -0.0009640752 0.0035426423 -0.00036150662 0.004046645
000040 50 61 33 bc 89 3c e3 3b 04 7e 18 bc 37 cb cd 3b
       -0.010948494 0.0069347066 -0.009307388 0.0062803286
000050 08 af 20 bf ce 42 8d be 5d 47 bc be 41 62 65 3d
       -0.62767076 -0.2759003 -0.36773196 0.056001905
000060 6b b5 2e 3d 46 6d 37 3f f0 de 3a be 79 8c 9b bd
       0.042653482 0.71651113 -0.18249106 -0.075951524
000070 c0 dc d6 3e 8c d9 06 3e 11 e6 e6 bd 4c 27 ab 3e
       0.41965294 0.13168925 -0.112743504 0.3342842
000080 1d 95 ba be e6 57 98 bf c4 2c e3 bc 2c 8a 3b 3c
       -0.3644189 -1.1901824 -0.027731307 0.011446517
000090 3d f9 ec bd b2 c7 1a be df 1e 10 be fe b0 64 3e
       -0.11570976 -0.1511524 -0.14074276 0.22333142
0000a0 a8 45 87 3d 1b 5a b1 bd 2b 4d 57 3e 38 a0 d1 be
       0.06605083 -0.086597644 0.21025531 -0.4094255
0000b0 8a dc ed be c1 95 8b be f9 4a a0 be 74 30 93 be
       -0.4645732 -0.2726269 -0.313072 -0.28747904
0000c0 99 fe 39 3e 50 d6 42 bc c6 b6 90 be 3d b0 16 3f
       0.18163528 -0.011891916 -0.28264445 0.5886267
0000d0 50 40 77 3e 5d dd 8c bd 44 1e 2f 3e 11 e4 31 bf
       0.24145627 -0.06878159 0.17101389 -0.69488627
0000e0 8b 59 44 3e ad 5d c8 3e 77 00 50 3e d7 bd 86 3f
       0.19174783 0.3913397 0.20312677 1.0526685
0000f0 66 95 04 bf cd 92 e0 be 50 c4 e3 be 18 0f 00 3f
       -0.51790464 -0.43862 -0.44485712 0.5002303
000100 df e8 bd be d6 4f 06 3e b1 0b a7 3e 66 80 00 bf
       -0.3709173 0.13116392 0.32626107 -0.5019592
000110 ba 36 83 3e aa d9 e5 3e 59 f2 f7 3e 9d 97 bf bd
       0.2562769 0.44892627 0.48427084 -0.0935509
000120 a1 77 d2 be 62 a0 85 be 41 d1 a7 3e 2e 8f ae bd
       -0.41106895 -0.26098925 0.32776836 -0.08523403
000130 b6 f1 21 bd a0 46 06 bf 1b 7f 66 3e f0 dd de be
       -0.039537154 -0.52451515 0.22509424 -0.435287
000140 2d 99 51 bc 0b 60 9a 3e a9 17 25 bf 67 08 56 3e
       -0.012792868 0.301514 -0.6448923 0.20901643
000150 3d 82 69 bf b6 8f 83 be 96 64 94 3e 7c 42 b5 be
       -0.9121435 -0.2569558 0.2898299 -0.35402286
000160 23 84 9a be bd 9e 6e 3f 33 2f d2 3e 9f b5 0a bf
       -0.30178937 0.93210965 0.41051635 -0.5418338
000170 de 4f fb be 8d 45 5c 3f 8d c5 19 3f 0c b2 cd be
       -0.4908437 0.86043626 0.60067064 -0.401749
000180 26 71 50 bf a1 58 69 bf ea 2c 69 3f 57 55 99 be
       -0.8142265 -0.9115086 0.9108416 -0.29947922
000190 9e 29 80 bc 7d ac b7 be 0f 99 9b 3e a9 32 35 be
       -0.015644845 -0.35873786 0.30390212 -0.17695107
0001a0 99 cb 89 be b7 8a b5 be 48 18 cb 3e 1d b7 de 3d
       -0.26913145 -0.35457394 0.39666963 0.1087477
0001b0 8f 94 55 3e 41 d7 c3 be 87 63 27 3d 4b 26 e0 3e
       0.20857452 -0.38250163 0.0408664 0.43779215
0001c0 86 19 11 be 00 db 30 bd a5 58 b3 3e 67 5b 5c be
       -0.14169893 -0.043177605 0.35028568 -0.21519242
0001d0 e3 75 5f be a6 f7 39 bc da 8e c1 be 07 2c 12 be
       -0.21822314 -0.011350548 -0.378043 -0.14274608
0001e0 0c 97 52 be 19 af f1 3e 20 08 01 bf 7b 33 06 3f
       -0.20565432 0.472039 -0.5040302 0.524223
0001f0 ab 1c 05 3f 3f c7 f4 3e 15 f3 de 3e 1e 3d 44 3d
       0.5199687 0.47808263 0.43544832 0.04790985
000200 20 28 c1 3e 48 fa 01 bf 5d bf 05 bf 8e ec 44 3d
       0.37725925 -0.50772524 -0.5224512 0.04807716
000210 54 2b fc be 6c c5 48 3e c0 a8 01 bf 82 ba ff be
       -0.49251807 0.1960656 -0.5064812 -0.49946982
000220 71 64 fd be 84 b0 05 3f b2 fb 03 3f 2a 64 ee 3e
       -0.49490693 0.52222466 0.5155593 0.46560794
000230 c1 85 84 be f7 26 0f be 78 c1 f2 bd 12 89 ea 3d
       -0.25883296 -0.13979708 -0.118533075 0.11451925
000240 26 22 5c 3d 08 f9 92 bc 7d 19 ab 3e 72 e7 71 bd
       0.053743504 -0.017941013 0.33417884 -0.059058614
000250 74 e8 ad 3d a3 e0 00 be df 82 e8 bd e6 4e 9c 3e
       0.084916025 -0.12585692 -0.11353087 0.30528945
000260 e4 4a 7a 3e 41 c0 e8 bd de 87 87 3d 45 4f 12 3c
       0.24442631 -0.113647945 0.066177115 0.008930032
000270 f8 a2 82 be fc d6 c9 3b ae f6 c2 be 6e 2a d8 3d
       -0.2551496 0.0061596613 -0.38078827 0.10554968
000280 c4 08 06 be 7a 23 ff bc 45 3a c4 be e2 de f4 bd
       -0.13089281 -0.031144846 -0.38325706 -0.11956574
000290 50 18 5a be c7 74 03 bf 87 94 fd 3d ac a2 35 3d
       -0.21298337 -0.51350063 0.12381845 0.04434459
0002a0 2f 63 73 3e 4a 24 ae 3e 40 fe 26 3f 45 a6 43 3e
       0.23768304 0.3401206 0.65231705 0.19106396
0002b0 3b 36 7b 3c 6f 29 65 bd a6 5a 21 3d 09 ae 82 be
       0.015332754 -0.055947717 0.03939309 -0.25523403
0002c0 c5 44 f9 bd 61 d8 33 3f 2b b1 83 be 5b 2a 46 3e
       -0.1217132 0.70252043 -0.25721106 0.19352095
0002d0 b7 3b 04 3f 69 ba 02 3f 9f 13 1b bd ae ae ea 3e
       0.5165362 0.5106569 -0.03786051 0.45836395
0002e0 b0 b3 f5 be 8b 00 99 be e8 c2 34 3e cb 0f 21 3d
       -0.47988653 -0.29883227 0.17652476 0.039321702
0002f0 5a 83 e4 3e d7 d1 07 3f 9f 90 f5 bd da d5 d0 be
       0.44631463 0.53054565 -0.11990475 -0.40788156
000300 e2 7f e9 3e 84 11 74 3e 65 0f f2 3d 89 57 b5 be
       0.4560538 0.23834807 0.118193425 -0.35418347
000310 31 a7 ee 3e bb 72 b6 bd 86 45 4e 3c 63 07 8a be
       0.46611932 -0.08908602 0.012589818 -0.2695876
000320 6b c4 ef be e9 35 c7 be 54 3a 7b be 8e 0c f9 3e
       -0.46829543 -0.38908318 -0.24533969 0.4864239
000330 ae d1 45 3e aa ea f2 3e cf 4d dd 3d ea 4c 05 3f
       0.19318268 0.4744466 0.108058564 0.52070487
000340 af 8f f9 3e c0 f7 fa be a7 2a 6d 3e 7d 1f d3 be
       0.48742434 -0.49017143 0.23160802 -0.4123496
000350 0d b4 03 bf 42 65 ba be 32 bc cf 3d b4 c8 fb 3e
       -0.5144661 -0.3640538 0.10143317 0.49176562
000360 7b 16 0e 3c ae d8 f1 3e a2 aa b1 3e a2 68 03 bf
       0.008672352 0.47235626 0.34700495 -0.5133153
000370 1e 0d 9f 3e fe 3e 08 bd bf 49 04 bf 91 7b f3 bd
       0.31064695 -0.0332632 -0.5167503 -0.11888803
000380 50 09 21 be 79 3a 3f bd 27 b1 54 3e c5 35 d5 be
       -0.15726209 -0.046686623 0.20770703 -0.41642585
000390 29 a6 00 bf 32 85 ec be 06 be fb 3e 55 47 00 bf
       -0.5025354 -0.4619537 0.49168414 -0.50108844
0003a0 e5 1e 02 bf 1b 7a 5a 3d 56 d4 e2 be 0d 17 e0 3e
       -0.5082839 0.053339105 -0.44302624 0.43767586
0003b0 34 52 ea bc 90 41 08 bf ae e6 d7 bc cc 4d 2a 3d
       -0.02860365 -0.5322504 -0.026355114 0.0415781
0003c0 76 04 64 be 28 51 ed 3e b6 fc 33 be f5 e0 c2 3a
       -0.22267327 0.4635098 -0.1757687 0.0014868068
0003d0 9f 34 03 3e db 13 75 be 7d 14 01 3f 8b 16 30 3f
       0.12813042 -0.23933356 0.5042189 0.687844
0003e0 6d 72 07 3d ed cc bd 3e 43 55 38 3e 09 dd d5 3d
       0.03306811 0.37070408 0.18001275 0.1044255
0003f0 b7 77 17 3e c8 5e 94 3d cb 7b 68 3e 3e 66 22 bc
       0.14791761 0.072446406 0.22703473 -0.009912072

fc1.weight f4 [20, 40]
000000 d9 c4 cf bf 2f f7 06 40 2b 4f a3 3e dd f8 b3 3f
       -1.6231948 2.108837 0.31896338 1.4060322
000010 51 3d 83 3e a4 b1 98 3f e5 35 80 3f c9 df c2 bc
       0.25632718 1.1929212 1.0016447 -0.02378835
000020 1b 78 13 3f fc 9c 17 3e e3 68 69 c0 44 17 2b 3f
       0.5760514 0.14805979 -3.6470268 0.66832376
000030 c0 c1 03 40 9c 72 81 bf 64 b7 45 40 05 f7 98 3f
       2.0587006 -1.0113101 3.0893183 1.1950384
000040 7b 91 a5 be d7 d8 da bf 45 db fd 3f 51 0d 23 bf
       -0.32337555 -1.7097424 1.9832541 -0.63692194
000050 d6 da dc 3f 1f 65 3f be 79 5e 64 bf b8 ac 53 bf
       1.7254283 -0.18690918 -0.89206654 -0.8268542
000060 6e 9f 95 be 5e 6d bb be 19 2e ab 3e 12 39 02 3f
       -0.29223198 -0.36606878 0.33433607 0.5086833
000070 6a 71 5f 3e 4d 32 d3 3e 9f 0a 82 be 89 60 9d 3b
       0.21820608 0.41249314 -0.25398728 0.0048027677
000080 ad e8 8a 3e e9 89 12 3e 63 f6 45 3d 45 8e f1 3c
       0.27130643 0.14310421 0.048330676 0.029486785
000090 e1 c2 1f 3d 4b 59 ac 3f 8c 86 d4 3e 2a 3e 8d bc
       0.03900421 1.346475 0.415089 -0.017241556
0000a0 21 e2 b4 3f 57 50 a1 3f ef 09 f2 3f cc 03 1e bf
       1.4131509 1.2602643 1.8909281 -0.61724544
0000b0 24 c5 7d 3f 31 ba 4e 3f d0 62 e4 be b3 e1 ca be
       0.9912894 0.80752856 -0.44606638 -0.3962532
0000c0 a4 e7 b6 3f a9 2e 9e bf d6 f4 8e bf 6e 45 ac bf
       1.4289441 -1.235799 -1.1168468 -1.3458688
0000d0 cd 58 88 3e 24 bb 2a c0 06 8e 89 be 39 78 90 c0
       0.2663025 -2.6676722 -0.26866168 -4.5146756
0000e0 b6 6a 65 bf 46 25 b3 bd 01 c2 64 c0 79 d4 ee 3f
       -0.8961595 -0.08747344 -3.574341 1.8658592
0000f0 f7 ff a5 be ad b0 06 3e 4b 39 98 3d 48 d0 ff 3e
       -0.32421848 0.13153334 0.07432803 0.49963593
000100 bf 00 dd 3d 48 fd 39 3f a0 b5 36 3f 4e 03 9a 3c
       0.10791158 0.726521 0.7137089 0.018800404
000110 48 a5 dc be 50 3c 85 3d d6 3a 09 be a6 b8 9a bc
       -0.4309485 0.06505644 -0.1340135 -0.018886875
000120 e1 71 f7 be 5d e7 a4 be ba d0 e0 be c9 da 49 3f
       -0.4832907 -0.32207766 -0.43909246 0.78849465
000130 e2 6b 01 bf ec ab 95 3e a8 3e 9e 3e 64 e1 88 3c
       -0.5055524 0.29232728 0.30907178 0.016709037
000140 ca 05 33 40 e5 7b 2b 40 9e 31 5a bd d2 83 22 3f
       2.7972283 2.679437 -0.053269975 0.6348239
000150 a6 b6 2d bf 1a 4c 61 3e fa c5 a1 bf b1 ef 94 3f
       -0.67856824 0.22001687 -1.2638543 1.1635648
000160 3b 8e fa bf 97 d5 3c 3f 31 cd 15 40 88 a2 a8 bf
       -1.9574655 0.7376341 2.340649 -1.3174601
000170 aa 80 7d be 60 13 75 3f 7d 0f 47 c0 15 f6 73 3f
       -0.24756113 0.9573269 -3.1103203 0.95297366
000180 18 ee 35 c0 2a eb 35 40 b8 36 85 3f ba 58 e4 bf
       -2.842657 2.8424783 1.0407324 -1.7839577
000190 c4 bb 70 be af 26 a2 be 1a 70 27 3f 91 55 c2 3e
       -0.23509127 -0.31670138 0.6540543 0.37955907
0001a0 01 01 05 3e 40 b4 a3 be 42 20 47 3e b8 d9 03 3f
       0.12988664 -0.31973457 0.19445899 0.5150409
0001b0 37 72 4d be eb c1 bb 3d d6 56 9c be 45 e6 92 be
       -0.20063101 0.09167846 -0.30535 -0.28691307
0001c0 00 61 e6 3e 8d 5b c7 3e 6e 08 7c be d6 a6 a8 3d
       0.4499588 0.38937035 -0.2461259 0.082349464
0001d0 07 bb 1f 3d b9 b7 0e 3f 27 3b 15 3f 9a 7a 8f bb
       0.038996723 0.5574909 0.58293384 -0.004378629
0001e0 b3 88 ca 3e be 91 fe bf 8f c3 d4 be 50 f0 3b c0
       0.39557418 -1.9888227 -0.4155545 -2.9365425
0001f0 7a 0d 1d bf 3c 75 44 3e 43 d7 05 40 97 36 0b c0
       -0.6134869 0.19185346 2.0912635 -2.175207
000200 07 16 56 bf 4c 30 fb bf dd af db 3f d5 eb 3f bf
       -0.8362736 -1.9624114 1.7163044 -0.74969226
000210 6c 73 71 bf 7e 54 44 3e 78 35 11 3e df 3b d4 3e
       -0.94316745 0.19172856 0.14180553 0.41451928
000220 55 b1 9f bf 79 bc 0d 3f bd ea 90 3f 36 cf 51 40
       -1.2475992 0.5536571 1.1321636 3.2782722
000230 8b f2 29 bf cd 2d 82 3e b1 1f b7 be b6 f8 3b 3f
       -0.66385716 0.25425568 -0.35766366 0.7342638
000240 ff c9 15 3f fa 38 98 3f 45 81 77 3e 7c a3 23 3d
       0.58511347 1.1892388 0.24170406 0.039950833
000250 af e2 8b bd 44 a1 40 bc dc 8c a7 3e a7 95 f7 3e
       -0.06830346 -0.011757199 0.32724655 0.48356363
000260 7f 6b ef be 2a 60 06 3e b0 82 08 3f c2 35 2a 3f
       -0.467617 0.13122621 0.53324413 0.6648828
000270 3b e5 95 bd 5f 03 66 bf 21 a7 2c bf 35 9d 25 3e
       -0.07319113 -0.89848894 -0.6744252 0.16173251
000280 7d 1a ac bf 84 88 5e bf c3 f0 02 c0 fd 8b 2f 3f
       -1.3445584 -0.86927056 -2.045945 0.6857298
000290 13 31 b9 bf 9f 1d f0 bf 03 a9 53 c0 ef b6 fc bd
       -1.4468101 -1.875904 -3.3071907 -0.12339579
0002a0 52 45 44 40 ec 89 bd bf d1 c6 68 3f 6a 48 4d bf
       3.066731 -1.4807715 0.9092837 -0.8018862
0002b0 2c d1 29 be b1 2c 7b bf 68 11 6e 3f 42 a9 c0 bf
       -0.16583699 -0.9811507 0.9299531 -1.5051653
0002c0 cb 1e d1 bf 0f 96 17 3f 8e d6 2c 40 e8 24 e0 3e
       -1.6337522 0.59213346 2.7005954 0.43778157
0002d0 8f 3d 7f be 2e 97 38 3f 7d 4a 27 be 46 7a b6 3d
       -0.24925826 0.7210568 -0.16337009 0.089100406
0002e0 8c 42 70 3f d2 96 ab bd ff f3 30 be 7e 50 0a 3f
       0.9385154 -0.08378376 -0.17280577 0.5402907
0002f0 89 03 26 bf 5b a6 86 be e1 b9 6e 3e 55 99 00 be
       -0.64849144 -0.26298794 0.23313095 -0.12558492
000300 92 88 b2 be 37 3e 37 bf 5b 76 a5 3e 8c b5 28 3f
       -0.3486982 -0.7157931 0.3231686 0.6590202
000310 71 60 eb 3e 42 b0 2a bf 27 26 01 3e 52 66 e8 3e
       0.45972016 -0.666752 0.1261221 0.45390564
000320 f0 49 53 3f 71 9a d7 be 14 61 ab 3d 61 94 9b 3f
       0.82534695 -0.42110017 0.083681256 1.2154657
000330 90 e5 b8 3f 4b dd 1d c0 7f 1f 36 40 f9 04 14 bf
       1.4445057 -2.4666317 2.8456724 -0.5782009
000340 0a 80 48 40 eb b9 88 3f 25 f9 d7 3f 65 17 7e 3e
       3.132815 1.0681738 1.6872908 0.24813612
000350 99 29 54 c0 96 19 ce bf 0d b7 48 bf 48 b9 85 3f
       -3.315039 -1.6101558 -0.78404313 1.0447168
000360 1d b4 5a 3f bc 5e 47 bf 8e 63 91 bf a5 9e 67 3e
       0.8543108 -0.7787893 -1.1358507 0.22619112
000370 8e 37 01 3f 7d cb b0 bd 39 a2 9b bf 23 d0 57 bd
       0.50475395 -0.08632562 -1.2158881 -0.05268873
000380 6d 2e 8b bd 10 5b 9d 3f 8c 89 60 3d d4 db 99 3d
       -0.067959644 1.2293415 0.054818675 0.07512632
000390 28 34 c9 be 2b 1f 10 3f b0 6e 66 be dd 95 8b 3f
       -0.39297605 0.5629756 -0.22503161 1.090511
0003a0 d6 ca 29 bf e7 4a b6 3e c4 47 c4 3c 5a 0c 39 3f
       -0.6632513 0.3560402 0.023960002 0.7228447
0003b0 0c 9c 5a be 6d 80 9f be 8f 5e 02 be 51 44 e1 3d
       -0.2134859 -0.3115267 -0.12731384 0.109993584
0003c0 5e c7 5a bf 4b 77 9d bf 63 aa 30 40 d1 a1 ad 3e
       -0.8546046 -1.230203 2.7603996 0.3391252
0003d0 44 9e 47 bf f0 58 06 40 62 d4 fc be fd b9 39 3e
       -0.7797587 2.0991783 -0.49380785 0.18137355
0003e0 f7 28 f4 be 59 ca 23 bf b4 e0 ec be e4 36 87 3f
       -0.47687504 -0.63980633 -0.46265185 1.0563626
0003f0 3e 48 8e c0 22 6e 33 3e 09 0a f7 bb 02 6d 55 3f
       -4.4463186 0.17522481 -0.007539038 0.8336946

fc1.bias f4 [20]
000000 f3 8b ff 3d 57 15 be 3d bd 94 e5 3d 34 04 b8 3d
       0.12477865 0.09281414 0.1121001 0.08985177
000010 53 48 12 3d 2a 75 be 3d bc ab 12 3e 30 14 12 3e
       0.035713505 0.09299691 0.14323324 0.14265513
000020 a7 9f cb 3d 23 fa 44 3d 0c fa cd 3d 37 4d 7c bd
       0.09942561 0.04809011 0.10057458 -0.061597075
000030 5f f8 b6 3d 06 7e c4 3d 20 4b e6 3d cc e0 c0 3d
       0.08934092 0.095943496 0.11244798 0.094178766
000040 25 2a dd 3d 56 1e 4f 3e 3e d2 87 bd 9d 51 93 bc
       0.10799054 0.20226416 -0.066318974 -0.017983252

fc2.weight f4 [2227, 20]
000000 ba a7 3f 3e c9 7e 69 3e f3 1c a6 be 99 6d 95 3e
       0.18716326 0.22802271 -0.32443962 0.2918518
000010 b9 dd 77 3e c9 d6 71 3e 80 bb af 3e 52 f7 f7 3e
       0.24205674 0.2361709 0.3432274 0.48430878
000020 89 21 69 3e b7 74 ce be c9 f2 ad 3e ec c6 9a 3f
       0.22766699 -0.4032342 0.33974293 1.2091956
000030 db fb 2d 3e 45 2a 4f 3e 41 02 84 3e a8 1c 9f 3e
       0.16990606 0.20230968 0.2578297 0.3107655
000040 c7 bb b0 3c ee 96 ae 3d c9 a0 dc 3e a4 98 b9 c0
       0.021573914 0.08524881 0.4309142 -5.799883
000050 6f 9e a3 bf 34 06 a2 bf 48 75 a2 bf 3d 07 aa bf
       -1.2782725 -1.2658143 -1.2692041 -1.3283459
000060 dc 1c 91 bf f4 59 94 bf 5b a0 8d bf 5d 06 9e bf
       -1.1336932 -1.1589952 -1.1064562 -1.2345692
000070 c7 11 97 bf e9 0d b3 bf f0 2d a4 bf b3 50 89 bf
       -1.18023 -1.398862 -1.2826519 -1.0727752
000080 30 d8 93 bf 7e af 82 bf d3 67 9a bf 51 e6 94 bf
       -1.155035 -1.0209806 -1.2062935 -1.1632787
000090 7c ee 9e bf 0d 33 9d bf 06 31 93 bf ac 9f c5 bf
       -1.241653 -1.2281204 -1.1499336 -1.5439353
0000a0 e3 9f 8e 3e a3 52 f1 bb 12 3d 71 be 2b df 79 3e
       0.2785636 -0.0073645874 -0.23558453 0.24401538
0000b0 0d 9a 48 3f b6 36 27 3e 71 e9 90 bf 1e 43 38 3d
       0.7836006 0.16329464 -1.1321241 0.044985883
0000c0 06 52 c3 bd 60 22 5d bf a0 5e 07 3f f8 83 c2 3e
       -0.09537129 -0.8638058 0.5287876 0.3799131
0000d0 ab bd ce be 79 94 6b 3f be 55 1b 3f ed 18 95 bf
       -0.4037908 0.92023426 0.6067771 -1.1648232
0000e0 4a 35 64 3e 51 15 81 bf 30 4d 4f bf 84 d9 16 3c
       0.22285953 -1.008463 -0.80977154 0.009207133
0000f0 71 1c 7e bd bc 2c 84 be 35 25 90 bd 83 1f a5 bd
       -0.062038843 -0.2581538 -0.07038347 -0.08062651
000100 48 5b 90 bf 50 6c c9 be 5d 7a 4f c0 64 66 b3 be
       -1.1277857 -0.39340448 -3.2418435 -0.35039055
000110 1a 3d 4a bf ed de ba bd 36 ae 9d be f8 34 83 c0
       -0.78999484 -0.09124551 -0.30796975 -4.100216
000120 f1 67 c8 bc 41 5f 61 bf 5b c3 b2 be 47 02 51 c0
       -0.024463626 -0.8803597 -0.3491467 -3.265764
000130 35 2b 62 bd 19 6c 18 bb e2 49 86 bd 27 ae ca bd
       -0.055216987 -0.002325779 -0.06557061 -0.09896498
000140 b3 56 08 3d 15 af 26 3e 57 b7 ce bf de 43 57 c0
       0.033285808 0.16277726 -1.6149701 -3.3635173
000150 3f 74 bb 3c b2 16 b9 bc 65 cb 77 be 25 86 93 bc
       0.022882579 -0.02259383 -0.24198683 -0.018008301
000160 22 a8 7a 3d f0 a8 87 bd 6c 2e 82 3e 09 6b ee 3d
       0.0611955 -0.06624019 0.25426042 0.11641509
000170 06 93 28 bf 35 77 44 c0 23 5c fa 3d d6 06 b3 be
       -0.6584934 -3.0697758 0.12224605 -0.34966153
000180 08 69 01 be 80 56 6c be c3 c4 da be be 67 62 bc
       -0.12637722 -0.23079872 -0.42728242 -0.013818679
000190 dd 5b cf bd bc c1 8c be 53 e1 aa bf 08 f5 a0 bd
       -0.101249434 -0.27491558 -1.3350013 -0.07859236
0001a0 51 a2 ec be 1d 89 53 3e f0 8c 67 be 89 5b 0e bd
       -0.46217588 0.20657773 -0.22612357 -0.034755263
0001b0 ee f2 ad bf e9 ac 77 be 00 cc 9c 3d 3e c2 05 be
       -1.3589761 -0.24187054 0.076560974 -0.13062379
0001c0 2f a8 7d bf 3b 79 d8 be d4 bc 93 be 15 8f cb 3c
       -0.9908475 -0.42279992 -0.28855002 0.0248485
0001d0 13 5f b7 bd 46 da 93 3d 85 88 a4 3d 70 aa d4 be
       -0.08953681 0.07219367 0.080338515 -0.41536283
0001e0 68 f6 c4 bd 25 61 05 be 60 c4 e3 bf d5 b1 65 be
       -0.09617311 -0.13025339 -1.7794304 -0.22431119
0001f0 e3 02 55 bd 73 04 04 be 5a c6 86 bc db a9 30 c0
       -0.052004706 -0.12892322 -0.016452003 -2.7603672
000200 bc 4d a1 bf 97 9a 95 be 49 3f 78 bc ac 06 27 be
       -1.2601848 -0.29219505 -0.015151807 -0.16311139
000210 3f b7 ca bd 7e b9 1e be 0d 47 f9 bd 33 81 00 be
       -0.09898233 -0.15500447 -0.12171755 -0.12549286
000220 97 8e 36 c0 eb b7 f6 bd 1f e4 25 bd 51 3c 39 bf
       -2.852453 -0.12046798 -0.040500756 -0.7235766
000230 45 ba 24 bf 8a 8b 18 bf 97 cd 91 bf 7d 2b fd be
       -0.64346725 -0.5958792 -1.1390866 -0.4944724
000240 1e 77 3b 3e bc ce 76 3e 53 1f 2a 3d 6c 5b 2d 3d
       0.18307158 0.241023 0.04153378 0.042323515
000250 1d 5f 53 bf 01 a5 09 bf 1c 31 5d 3d 95 94 18 be
       -0.82567006 -0.537674 0.054001912 -0.1490043
000260 dc 55 40 bf 9f 06 70 c0 0b 1d 62 3e 9b fa 3c bd
       -0.7513101 -3.7504041 0.22081392 -0.046137433
000270 55 18 2b bf 21 5d c9 3d a4 b7 4c be c0 95 5c be
       -0.66834 0.09832216 -0.19991928 -0.215415
000280 dc ba 3d be 8c dc ac 3c db e3 0d bf 5c 4a f1 be
       -0.18528312 0.021101259 -0.55425805 -0.47127044
000290 3e 09 bd c0 80 28 7f bc 46 3d 83 be 48 cb 12 be
       -5.907378 -0.015573621 -0.25632685 -0.14335358
0002a0 57 26 de be dd ce 7f be ac ce ce bd dd 80 78 bd
       -0.43388626 -0.24981256 -0.10098013 -0.06066977
0002b0 6a b2 23 bf c1 09 96 be 8a 44 30 c0 16 0a 24 3d
       -0.63944113 -0.29304317 -2.7541833 0.04004868
0002c0 41 93 86 bd 64 3a 7b bf b0 6b 85 be 80 0c 23 be
       -0.06571055 -0.9813597 -0.26058722 -0.15922737
0002d0 3e a1 08 3e 8d 2a 28 c0 66 f9 1a 3e 6f 2f 8a be
       0.13342759 -2.627597 0.151342 -0.26989314
0002e0 f9 a2 1e bf 4b de 63 3e 25 26 97 c0 28 e4 30 3e
       -0.61967427 0.22252767 -4.7234063 0.17274535
0002f0 51 01 7c bf cc 0b 11 3e f9 4e de bf 59 43 33 3e
       -0.9843951 0.14164656 -1.736785 0.1750616
000300 f3 2d 87 c0 48 5a 3f 3e b7 d0 41 3c 5d 42 58 3e
       -4.224359 0.18686783 0.011829547 0.21119066
000310 dd 14 65 c0 49 be 3a 3e f4 22 49 3e 50 d6 2e 3e
       -3.5793984 0.1823665 0.1964224 0.17073941
000320 ac 38 6c be 32 45 b6 be 2b aa ee bd d1 75 6e c0
       -0.23068494 -0.35599667 -0.11653551 -3.725941
000330 9c 20 d7 bd 5a c2 17 be 60 b8 01 c0 d7 23 86 be
       -0.105042666 -0.14820233 -2.0268784 -0.2619922
000340 2f d9 16 be 40 00 17 bf 34 dc 05 be 1e d5 d1 bf
       -0.14731286 -0.58984756 -0.13072282 -1.6393163
000350 ba 7a 8d bd 10 11 b8 bd 8a 0a 7d bf 7a 9a ee bd
       -0.06908174 -0.089876294 -0.98844206 -0.11650558
000360 52 34 7d bf c3 93 2f be b3 3d 54 bf 0e af 57 be
       -0.9890796 -0.1714621 -0.82906646 -0.21062872
000370 98 62 e3 bd 5f 6c 11 be 81 cf 05 c0 c3 7c c9 bc
       -0.1110279 -0.14201497 -2.09079 -0.024595624
000380 13 a3 8e c0 ff cb 87 bd 07 1e 7d 3d 09 ff a8 bb
       -4.4574065 -0.06630706 0.061796214 -0.0051573557
000390 c4 c3 30 bb d8 9b f7 bd 35 74 58 bd 77 25 92 be
       -0.0026972154 -0.12090272 -0.0528452 -0.28544208
0003a0 18 18 b6 be 76 65 a1 3c 09 18 80 bf 4d e9 d0 bf
       -0.35565257 0.0197017 -1.0007335 -1.6321198
0003b0 95 61 db bd 16 68 2f bf 1e b8 a7 bd f2 e0 4a bf
       -0.10711972 -0.685182 -0.081894144 -0.7924949
0003c0 d6 16 02 bf e0 f1 3e be b8 36 96 be c3 38 94 bf
       -0.50816095 -0.18646955 -0.29338622 -1.1579822
0003d0 4a 98 0e be ee ee ff bc 87 0c 7e be 9b d2 0b be
       -0.13925281 -0.03124186 -0.24809466 -0.13654558
0003e0 f5 92 d1 bd 03 46 80 bf f8 11 18 be 72 6f 4d c0
       -0.10233108 -1.0021366 -0.14850605 -3.209927
0003f0 00 f7 a1 be 21 82 e5 bd 31 4e af bd 25 3d 65 be
       -0.3163376 -0.11206461 -0.08559836 -0.22386606

fc2.bias f4 [2227]
000000 ad e6 b9 3c 48 66 fd bf bb cf 58 be 4b be d8 bd
       0.022693003 -1.9796839 -0.21172993 -0.105831705
000010 cf 0a 88 bd 73 0f a7 be 54 f2 79 be 6a e7 76 be
       -0.066426866 -0.32628974 -0.24408847 -0.24111715
000020 78 9b 48 be eb 4a ec 3d 7f 82 8d be ff 38 6b be
       -0.19590557 0.11537727 -0.27638623 -0.22970961
000030 68 d3 75 be 79 5c 00 be 92 a6 41 be 9b 31 5b be
       -0.24006426 -0.12535276 -0.18911198 -0.21405642
000040 db f2 83 bb 92 67 94 ba b0 e1 de bd 34 9e 1a 3b
       -0.0040267534 -0.001132237 -0.1088289 0.0023592832
000050 db d9 ed bd 76 75 45 be c6 bb 2a be 28 44 5c be
       -0.11613818 -0.19283089 -0.16673192 -0.21510375
000060 cb 79 f6 ba 36 97 3d be 36 be 47 be 8a 9c 78 be
       -0.0018804608 -0.18514714 -0.19506153 -0.24278465
000070 5f 23 18 be 9b 01 16 3c 60 a7 21 be f8 bd 98 be
       -0.14857243 0.009155656 -0.15786505 -0.29832435
000080 8e ab bb be fb 7b 9b be d5 89 7e bd a8 0a b9 bd
       -0.36654323 -0.30368027 -0.062143166 -0.09035236
000090 10 ae 88 be e4 d1 ab 3d c1 99 2a 3e 4c 52 fb bb
       -0.266953 0.08389643 0.16660215 -0.0076697227
0000a0 42 24 bd 3b 86 84 09 3e 94 52 88 bd 10 ba 27 be
       0.0057721445 0.1342946 -0.066563755 -0.16379571
0000b0 89 5e 2f bd ce 9a f1 3d a7 89 d8 bd 39 d6 7d 3c
       -0.042814765 0.11797105 -0.1057313 0.015492969
0000c0 98 36 92 3d 19 21 59 be 49 c0 0f 3e f8 f7 95 be
       0.07139319 -0.21204032 0.14038195 -0.29290748
0000d0 4d 15 32 be 38 e8 bb bd ce e7 9b bd 1c 7a 62 be
       -0.17390938 -0.091751516 -0.076125726 -0.22116894
0000e0 23 06 22 be 81 d6 3e be ec f8 2b be a3 03 38 be
       -0.15822653 -0.18636514 -0.16794175 -0.17970137
0000f0 a1 ab 78 be a9 c8 41 be a1 2b 61 bd 67 47 3d be
       -0.24284221 -0.18924202 -0.05497325 -0.18484269
000100 99 e9 ea bc e5 d0 20 be c6 06 eb bd 3b ad 91 be
       -0.028675841 -0.15704687 -0.11475901 -0.28452477
000110 76 f8 07 be cf 01 60 bd 5f 70 13 3d 25 19 02 be
       -0.13278374 -0.054689225 0.035995837 -0.12704904
000120 be 9e 1a be ae db b4 bd c2 80 47 3d d0 ec bb be
       -0.15099618 -0.08830963 0.048706777 -0.3670411
000130 d5 0a 09 3e 6d df be 3d 4e 66 a1 bd 2b 73 09 3e
       0.13383038 0.09319959 -0.07880841 0.1342284
000140 cd 21 af bd a0 a0 50 bd c2 69 3f be 20 00 a5 be
       -0.08551369 -0.050934434 -0.18692687 -0.32226658
000150 6e 96 d6 3b 81 d3 9f 3d 7d 1b b0 bd ec 8a a7 bd
       0.0065486943 0.07804013 -0.08598993 -0.08180794
000160 d5 38 5e be ff b1 53 be d2 11 16 be 11 67 8b be
       -0.21701367 -0.20673369 -0.14655235 -0.2722707
000170 68 aa 43 3c 11 5a 86 be 97 be 88 be 79 04 52 be
       0.0119424835 -0.2624059 -0.2670791 -0.20509519
000180 55 7c 7f bd 30 78 a5 3d a3 6c 0b 3e c6 4c 44 3d
       -0.06237443 0.080795646 0.1361566 0.04792478
000190 43 c2 44 be 15 bf 2d be da 59 05 be c5 bb 84 bb
       -0.1921473 -0.16967423 -0.13022557 -0.004050704
0001a0 03 3c d3 bd 1a e5 49 be dd 14 88 be 9a 52 33 be
       -0.10314181 -0.19716302 -0.26578417 -0.17511979
0001b0 63 f2 4c be 62 77 eb bd bd cc 82 be 0c 63 ff bd
       -0.20014338 -0.1149738 -0.25546828 -0.124700636
0001c0 a6 90 fe bc c5 63 8b bd 4b e6 ff bd 04 fc 0a be
       -0.031074833 -0.06806139 -0.12495097 -0.13572699
0001d0 0f d4 1b 3e 90 b5 9e bd f3 aa 7d bc 3c ad 57 be
       0.15217613 -0.07749474 -0.015482652 -0.21062177
0001e0 fe 9a f7 bd 42 b5 4c be bb 59 42 bd fa 0f 21 be
       -0.12090109 -0.1999102 -0.047448855 -0.15728751
0001f0 f9 2c 20 be fd 73 dd bd de 75 a2 bc 0a 0b 16 be
       -0.15642156 -0.10813139 -0.019831594 -0.14652649
000200 1a 54 da bd 69 2a 5f bd 51 c6 75 bd 80 45 38 be
       -0.10660572 -0.054483805 -0.060003582 -0.17995262
000210 e1 6a 4b 3e 1e ee 11 3d 41 ae fd bd b3 2e 91 3c
       0.1986499 0.035627477 -0.12386752 0.017722463
000220 99 97 2d be cc e6 0b 3e 9f 6d 56 be 78 53 8b bd
       -0.16952361 0.13662261 -0.20940255 -0.0680303
000230 41 2a 21 be 04 e8 77 be d8 b8 63 be 94 4c 2c be
       -0.15738775 -0.242096 -0.22238481 -0.16826087
000240 c6 d6 21 be e4 7c 79 bd 00 08 17 be 36 84 24 be
       -0.15804586 -0.06091012 -0.14749146 -0.1606606
000250 71 f1 e7 bd db 6a 17 bd f0 6a 3d be 5f 58 a7 bd
       -0.11325348 -0.03696714 -0.18497825 -0.08171152
000260 68 13 a4 bb d9 d7 1c be 02 fe 4b bd 17 1e ab 3d
       -0.005007196 -0.15316714 -0.049802788 0.083553486
000270 46 44 ec bd fe 5c 21 be 84 1a 2f be b8 1e 2f 3d
       -0.115364596 -0.1575813 -0.17099959 0.042753905
000280 bb 8f 78 bd ed 61 50 be ec ae 76 be 1e 47 7c be
       -0.060683947 -0.20349856 -0.24090165 -0.24636504
000290 42 2a 66 be 07 a4 cc bd be a7 50 be b2 46 13 be
       -0.22477058 -0.09992223 -0.20376489 -0.14382437
0002a0 91 ec 37 bb db 21 00 be 62 13 9c be 39 0c c9 bc
       -0.0028064589 -0.12512915 -0.30483538 -0.024541961
0002b0 3d 37 ee bd 0e 5a 1a be 37 ae 61 be 9f 26 f1 bd
       -0.116316296 -0.15073416 -0.22039114 -0.117749445
0002c0 88 7e f4 bd e8 01 f4 bd 62 be 68 be d2 7f 6b bd
       -0.119381964 -0.11914426 -0.22728875 -0.057494946
0002d0 5c e9 43 be 80 58 6f be 5a cb 1e 3e a5 15 32 bd
       -0.19131988 -0.23373604 0.1550726 -0.043477673
0002e0 97 1e 89 bd 13 cb f9 3d a4 25 02 be 28 87 2d 3e
       -0.06695288 0.121969365 -0.12709671 0.1694609
0002f0 19 46 64 bd 37 0d 2e be 96 1c b0 3c 54 e8 36 bd
       -0.055730913 -0.16997229 0.021498006 -0.04465516
000300 ab e1 ad 3c 71 ed 39 be 49 21 5e bd 37 44 98 bd
       0.021225771 -0.18156983 -0.054230962 -0.07434886
000310 bd 18 0b be 76 17 22 be 01 32 52 be ca da 2c be
       -0.13583656 -0.15829262 -0.20526887 -0.16880336
000320 a2 23 70 bd 9d 20 cf 3c 1e 38 33 be 8c 07 11 3d
       -0.058627732 0.025284106 -0.17501876 0.035407588
000330 89 0a 81 3c 44 bf 46 be 54 59 6f bd a4 3c e5 bd
       0.015752094 -0.194089 -0.0584348 -0.11193207
000340 ab 34 55 be ae 18 17 be fe 10 d9 bd ac bb 2c 3e
       -0.20820872 -0.14755508 -0.10598944 0.16868466
000350 1d a7 05 be 7f 00 7b be 6d f7 3a bd 68 cd df ba
       -0.1305203 -0.24511908 -0.04564612 -0.0017074766
000360 09 e8 a1 3d bb e5 0b be 70 ae 0a be 95 17 51 be
       0.07905585 -0.13661854 -0.13543105 -0.20419152
000370 3f 1d 0a be 54 60 16 3d 63 66 d7 3d 47 b8 2a 3b
       -0.13487719 0.03671296 0.105175756 0.002604978
000380 49 e4 e5 bb 07 fd 41 be a1 44 ed bd 62 5e 1a be
       -0.007015739 -0.18944179 -0.115853556 -0.15075067
000390 3b 7d 4d bd e2 da 4d bd f8 08 3d bd 81 a4 21 3e
       -0.050168257 -0.05025757 -0.04615113 0.1578541
0003a0 81 d4 49 be d5 c0 3e be 8b db 4d be af ce 76 be
       -0.1970997 -0.18628247 -0.2010328 -0.24102281
0003b0 2d a8 da bd a3 4f 05 be 41 8e 4d be 9e f2 5d be
       -0.10676608 -0.1301866 -0.20073797 -0.21674582
0003c0 6c 0e 37 be b2 eb d2 bd 04 e4 34 be 14 f7 67 be
       -0.17876595 -0.102988616 -0.17665106 -0.22652847
0003d0 b3 22 ec 3d f0 73 af 3b d1 25 f2 bd 77 16 27 be
       0.11530056 0.005354397 -0.11823619 -0.16317163
0003e0 17 72 6a be 68 6c c4 3b a5 3f 35 bd de fb 26 3e
       -0.22895084 0.0059943683 -0.04425015 0.16307017
0003f0 51 be 16 be 09 e6 91 bd 64 76 00 be 84 1a 5c bd
       -0.14721037 -0.07123954 -0.12545162 -0.053736225
