weights/150_epochs_lemmatized_weights.pth (torch, 370677 bytes, 5 tensors)

embed.weight f4 [2227, 20]
0	0x39c97b7e	0.00038429716
1	0xba20b2b5	-0.0006130145
2	0x390c1fbd	0.00013363264
3	0x391d3be4	0.00014994998
4	0x3a3ef7e2	0.0007284862
5	0x39d4a146	0.0004055595
6	0x38240c48	3.9112085e-05
7	0xb9ac7db3	-0.0003290005
8	0xb94ae6b1	-0.0001935016
9	0xb8902fdb	-6.875369e-05
10	0x3a1d29f0	0.0005995324
11	0xb8e1d948	-0.00010769308
12	0xb99aa4bc	-0.00029495906
13	0x391c506a	0.00014907276
14	0xb8cb20c2	-9.685896e-05
15	0xb9846370	-0.0002525109
16	0x399ecc2e	0.00030288234
17	0x39322b19	0.00016991458
18	0x3984696b	0.00025255544
19	0x39701bef	0.0002289859
20	0x3e8f7bc0	0.280241
21	0x3e936d38	0.28794265
22	0xbe2d3e50	-0.16918302
23	0x3f01a428	0.5064111
24	0x3ed5820a	0.41700774
25	0xbdffa04d	-0.12481747
26	0x3e111caa	0.1417109
27	0xbeebf2b3	-0.46083602
28	0xbe0ca015	-0.13732941
29	0xbf681c78	-0.9066844
30	0x3e0d0eda	0.13775197
31	0xbd3f5dfd	-0.046720494
32	0x3e0eeddd	0.13957925
33	0x3cf1cf4e	0.029517796
34	0x3cc5a1ff	0.024125097
35	0xbe49bf25	-0.19701822
36	0x3d54d932	0.051964946
37	0x3e7cb2d0	0.24677587
38	0xbf88e128	-1.0693712
39	0x3e1d2ed1	0.1534989
40	0x3eca0390	0.39455843
41	0x3e567310	0.2094233
42	0xbf10081f	-0.5626239
43	0x3e67eeb6	0.22649655
44	0xbdcb6e10	-0.09933102
45	0x3c1f3f94	0.009719748
46	0xbed3ff56	-0.41405743
47	0xbd5bd70b	-0.053671878
48	0x3e4c3283	0.19941144
49	0x3f47fa2a	0.78116095
50	0x3e4d2b4f	0.20036052
51	0x3e77bbf5	0.24192794
52	0x3ee8304a	0.45349342
53	0xbf169038	-0.5881381
54	0xbd2b9dee	-0.04189866
55	0xbf4fb780	-0.81139374
56	0x3d8abe6c	0.06774601
57	0x3d5b6f7b	0.053573113
58	0xbdecadfe	-0.11556624
59	0xbe884528	-0.26615262
60	0x3e8e9f5b	0.27855954
61	0x3c8b6251	0.017014654
62	0xbe11e8c7	-0.14248954
63	0x3ea9fd0e	0.33200878
64	0x3ef9c9bf	0.48786733
65	0x3ee7ef3a	0.45299703
66	0xbe27ccea	-0.16386762
67	0x3ede36c9	0.43401173
68	0x3b54b565	0.0032456752
69	0xbef14157	-0.47120163
70	0xbf042109	-0.5161291
71	0xbf01643b	-0.50543565
72	0xbe3e5a91	-0.18589236
73	0x3e9dbefe	0.30809778
74	0x3f031d87	0.5121693
75	0x3eff37d2	0.49847275
76	0x3f0281ac	0.50979114
77	0x3d28e542	0.041234262
78	0xbee86cad	-0.45395413
79	0xbdd1f25b	-0.10251304
80	0xbe9cb242	-0.3060475
81	0xbf263268	-0.64920664
82	0x3f453e0b	0.77047795
83	0x3e9386ed	0.28813878
84	0x3ea6a0df	0.3254461
85	0xbe7eb63c	-0.24874204
86	0x3d1b8250	0.037966073
87	0x3eb6fbb9	0.35738924
88	0xbe393bcb	-0.18089215
89	0xbea0dd38	-0.31418777
90	0xbed00b3b	-0.40633568
91	0xbed1bf5d	-0.4096631
92	0xbdf3a365	-0.118963994
93	0x3dbe4395	0.09290234
94	0x3f196a7b	0.599281
95	0x3e5a1776	0.21298012
96	0xbe9d3a81	-0.30708697
97	0x3e812957	0.25226852
98	0xbf17133e	-0.59013736
99	0xbedde94b	-0.4334205
100	0x3e4cb0bf	0.19989298
101	0xbdba0937	-0.09083789
102	0xbe884b45	-0.26619926
103	0x3e84843a	0.2588213
104	0xbe9ba72d	-0.30400982
105	0x3d7dc510	0.06195551
106	0x3eb8b0de	0.3607244
107	0xbdb612d3	-0.08890309
108	0x3e4c692e	0.19961998
109	0xbe6ba676	-0.23012719
110	0x3dcbbdd8	0.09948319
111	0x3e43bdb5	0.19115336
112	0x3d2f8053	0.04284699
113	0xbeeeddc4	-0.4665357
114	0x3ecc7f17	0.39940712
115	0xbd51f305	-0.051257152
116	0xbc401f52	-0.011726217
117	0x3e6a2f98	0.22869718
118	0xbb51ae3c	-0.003199472
119	0x3d109918	0.03530225
120	0xbee9a066	-0.45630187
121	0x3f08ed59	0.53487164
122	0xbf030738	-0.5118289
123	0xbed73922	-0.42035776
124	0xbf0853cd	-0.5325287
125	0xbf077955	-0.52919513
126	0xbebe4e33	-0.37169036
127	0x3f04f6e0	0.519392
128	0xbea82f3a	-0.3284853
129	0xbe6a71ab	-0.22894923
130	0xbf014f22	-0.5051137
131	0x3d906ab6	0.070516035
132	0x3f075481	0.5286332
133	0xbeb63ebb	-0.35594735
134	0x3f084623	0.5323202
135	0xbf0808c1	-0.5313836
136	0xbf062404	-0.52398705
137	0x3f06470f	0.52452177
138	0x3e2ec241	0.1706629
139	0xbeab2b91	-0.33431676
140	0x3e9ba8b1	0.3040214
141	0x3e344c0b	0.17607133
142	0xbc7541a8	-0.014969267
143	0x3e1d558f	0.1536467
144	0x3cf6fe2a	0.030150492
145	0xbe1842d1	-0.14869238
146	0x3e54a95b	0.20767729
147	0xbe2ec730	-0.17068172
148	0x3b9b7f26	0.004745382
149	0xbbe28a0a	-0.006913428
150	0x3d3e0c6e	0.046398573
151	0x3ca2f6b9	0.019893037
152	0x3e4d8bef	0.20072912
153	0xbe5c6aaa	-0.21525064
154	0x3e7622c1	0.24036695
155	0xbca38a87	-0.019963516
156	0xbe0fc59a	-0.14040223
157	0xbddf3a26	-0.10899763
158	0xbe03bdb9	-0.12865342
159	0xbd6759dc	-0.05648218
160	0x3f24bdf2	0.64352334
161	0xbf1edea5	-0.6205848
162	0x3f2410af	0.6408796
163	0x3dcd102d	0.10012851
164	0xbe159fe1	-0.1461177
165	0xbe53c044	-0.20678812
166	0xbe62565b	-0.22103254
167	0xbed8f427	-0.42373773
168	0x3cf384aa	0.029726345
169	0x3e86dba9	0.26339462
170	0x3ea4d10c	0.3219074
171	0xbdb8f082	-0.09030248
172	0x3e03e205	0.12879188
173	0xbf044936	-0.5167421
174	0x3cf4df4a	0.029891629
175	0xbe337370	-0.17524505
176	0xbb8f74f3	-0.004377955
177	0x3e1835c9	0.14864267
178	0xbe3ab5c0	-0.18233395
179	0x3eb472fc	0.35243976
180	0xbf0577aa	-0.5213572
181	0xbd8d1267	-0.068882756
182	0x3ef55518	0.47916484
183	0xbe71c564	-0.23610455
184	0xbe757f89	-0.23974432
185	0xbed76a82	-0.42073447
186	0x3ec472b4	0.38368762
187	0x3d8fa4eb	0.070138775
188	0x3cc6868a	0.024234075
189	0x3d8ff16e	0.07028471
190	0x3eae78e6	0.34076613
191	0xbc55c209	-0.01304675
192	0xbe1e1c0b	-0.15440385
193	0x3e7ac731	0.24490048
194	0xbeeff501	-0.4686661
195	0xbde2d4e1	-0.1107576
196	0x3d886b93	0.06661143
197	0x3de3bf82	0.111205116
198	0x3f03b397	0.5144591
199	0x3ee2871d	0.44243708
200	0xbe522e12	-0.20525387
201	0x3f06db37	0.52678245
202	0xbd852908	-0.06501967
203	0xbe17bc10	-0.14817834
204	0x3e4203e4	0.18946797
205	0x3f059986	0.52187383
206	0xbefbe026	-0.4919445
207	0x3e04092b	0.12894122
208	0x3f01b4d8	0.5066657
209	0xbbf6ef02	-0.007535816
210	0x3f04be76	0.5185312
211	0xbef7f401	-0.48428348
212	0x3f0708ca	0.52747786
213	0x3f07b6b1	0.5301314
214	0xbde34b69	-0.11098368
215	0x3efc4d10	0.49277544
216	0x3ed14e62	0.40880114
217	0x3d0bf142	0.03416563
218	0xbea52a2c	-0.32258737
219	0x3f04ec45	0.5192302
220	0xbe998a26	-0.2998821
221	0x3eb809a0	0.35944843
222	0x3f0096ca	0.50230086
223	0xbec2f4ca	-0.38077384
224	0xbe330263	-0.17481379
225	0x3f05c7f8	0.52258253
226	0x3effdef0	0.49974775
227	0xbe9861a2	-0.29761988
228	0xbf04d06e	-0.5188054
229	0x3ef8616b	0.48511824
230	0x3f044d93	0.5168087
231	0xbed16de5	-0.40904155
232	0x3dfde986	0.12398057
233	0x3efe180c	0.4962772
234	0x3dd00e69	0.101589985
235	0xbe8d3489	-0.27579144
236	0x3ed3b1be	0.41346544
237	0x3eaf7009	0.34265164
238	0x3c0f25ef	0.008737071
239	0x3dbf5f4a	0.09344347
240	0x3ed83af8	0.4223249
241	0xbe36b583	-0.17842679
242	0x3ec1ed3b	0.37876305
243	0xbc83d305	-0.016091833
244	0xbecd5601	-0.40104678
245	0xbd799f53	-0.06094296
246	0x3dd93c82	0.10607244
247	0x3e2866e3	0.16445498
248	0x3f139f83	0.5766527
249	0xbe32c3a4	-0.17457443
250	0x3e7ca949	0.24673952
251	0xbe22ac33	-0.15886001
252	0x3ebfa955	0.37433878
253	0x3db0076f	0.08595168
254	0xbebb8834	-0.36627352
255	0x3d011cbf	0.031521555

fc1.weight f4 [20, 40]
0	0x3f9fa5a8	1.2472429
1	0x3dfa20a2	0.122132555
2	0xbf805097	-1.0024594
3	0x40005cde	2.0056682
4	0x3f6da412	0.92828476
5	0x40600517	3.5003107
6	0xbfacab4a	-1.3489773
7	0x3f9e8d43	1.238686
8	0xc01e2295	-2.4708607
9	0x3f4f8aca	0.8107115
10	0x3f6b0914	0.9181073
11	0xbf059a6a	-0.5218874
12	0xbe17e1ee	-0.14832279
13	0xbf785580	-0.9700546
14	0x407bac15	3.932378
15	0xbf0f3a6b	-0.55948514
16	0x3e1bb491	0.152056
17	0x3fc124e7	1.5089387
18	0xba96ceea	-0.0011505757
19	0xbff9d546	-1.9518211
20	0x3f53f3b4	0.82793736
21	0x3f188ee2	0.5959302
22	0xbfadf276	-1.3589618
23	0x3f8ddac0	1.1082382
24	0xbe949d83	-0.29026422
25	0x3f51a7b6	0.8189653
26	0x3f9e5462	1.2369502
27	0x3e8c4a93	0.27400646
28	0xbe27ab20	-0.16373873
29	0x3ea53d10	0.3227315
30	0xbe276d27	-0.16350232
31	0x3dae2a9b	0.0850422
32	0xbf4d753f	-0.8025703
33	0xbf5c1546	-0.8596996
34	0xbe28bfcf	-0.16479419
35	0xbeaad9b0	-0.33369207
36	0xbf041982	-0.5160142
37	0x3cfed1d9	0.031105923
38	0x3ef01dfb	0.46897873
39	0xbc9bc66f	-0.019015519
40	0xbe690076	-0.22754082
41	0x3f0bddb7	0.54635185
42	0x401cc95e	2.4497905
43	0xbd873eb8	-0.066037595
44	0xc02ef252	-2.73354
45	0x3dc490f3	0.09597959
46	0xbf8804c0	-1.062645
47	0xbefc5b8d	-0.49288598
48	0xc007f806	-2.1245131
49	0xc030d365	-2.7629025
50	0xbfbce1df	-1.475643
51	0xbd7f651c	-0.062352285
52	0xbe812cd3	-0.2522951
53	0x3e776d34	0.24162751
54	0xbea134e9	-0.3148568
55	0x3f532852	0.824834
56	0x404aed0c	3.1707182
57	0x3fcd6dc6	1.6049125
58	0xbeff7c41	-0.49899486
59	0x3fbca338	1.473731
60	0x3eec0861	0.46100143
61	0x3f0bf2c6	0.5466732
62	0xbe6b2420	-0.22963
63	0x3dcaf0f7	0.09909242
64	0x3d97c077	0.07409757
65	0x40383c44	2.8786783
66	0xbe49241c	-0.19642681
67	0xbd748cb5	-0.0597045
68	0x3eb3fe0f	0.3515477
69	0x3e42abe4	0.19010884
70	0xbcd31944	-0.025768884
71	0xbf102bb3	-0.5631668
72	0xbf5ba985	-0.8580554
73	0xbf4f5f99	-0.81005245
74	0x3d4a8bd9	0.049449775
75	0x3f347a97	0.7049956
76	0xbd066df0	-0.03281969
77	0x3d8c18e7	0.06840687
78	0x3f466046	0.7749065
79	0xbda1715f	-0.07882952
80	0x3feaf649	1.835641
81	0xbe1cfabe	-0.15330026
82	0xbf13a6b5	-0.5767625
83	0xbfbe1845	-1.4851156
84	0x408ba9a4	4.364458
85	0x3e5b7a16	0.21433291
86	0xbe4fff04	-0.20312124
87	0xbfbb5a27	-1.4636887
88	0xbfc1b7fa	-1.513427
89	0xbf7e3df9	-0.9931331
90	0xbf10a7a6	-0.5650581
91	0xbf4a821f	-0.791048
92	0x3e00d450	0.12580991
93	0x3e540499	0.20704879
94	0xc070b82d	-3.7612412
95	0xbc94e93a	-0.018177617
96	0xbefc1c66	-0.49240416
97	0x40009f46	2.0097213
98	0x3ec6308a	0.38708907
99	0x3f4b4d1f	0.7941455
100	0xbd64f045	-0.0558932
101	0xbd578113	-0.05261333
102	0x3fa44c50	1.2835789
103	0xbeacff97	-0.3378875
104	0x3f5495cf	0.8304109
105	0xbf88a6c9	-1.0675899
106	0xbec0b770	-0.37639952
107	0xbeb0acfc	-0.34506977
108	0x3d0f3464	0.034962073
109	0xbf0ffc65	-0.562445
110	0x3f7b2d48	0.9811597
111	0xbf2dca76	-0.67887056
112	0x3e9560f1	0.29175523
113	0x3f0cf401	0.5505982
114	0x3e4183f1	0.18897988
115	0xbef431c1	-0.4769421
116	0x3f942246	1.157296
117	0xbda2e8c3	-0.07954552
118	0xbf471c39	-0.7777744
119	0x3eff19f8	0.498245
120	0xc04f18c3	-3.2358863
121	0x3f0dc135	0.55372936
122	0xbfdd0dc1	-1.7269822
123	0xc01d9b10	-2.4625893
124	0xbf5bc452	-0.85846436
125	0x3f04c841	0.51868063
126	0xbf352159	-0.7075401
127	0x3eb50f06	0.35363024
128	0xbf3b4879	-0.7315746
129	0x3fd5dd7a	1.6708214
130	0xbfcc2b4b	-1.5950712
131	0xc03524b7	-2.830366
132	0xbf452903	-0.77015704
133	0x3f3aed30	0.7301817
134	0x3e34ec43	0.17668252
135	0x4022ad5e	2.5418315
136	0xbfaf5d6a	-1.3700383
137	0x3fc8e647	1.5695275
138	0xbf521bd1	-0.82073694
139	0xbf2dadd2	-0.67843354
140	0x3ebadd4f	0.3649697
141	0x3eece5fa	0.46269208
142	0xbf917495	-1.1363703
143	0x3f70e69f	0.941019
144	0x3e5c912c	0.21539754
145	0x3e99d0c4	0.30042088
146	0x3ec3ebde	0.3826589
147	0xbf24795d	-0.64247686
148	0x3eb818c1	0.35956386
149	0xbe1ac39c	-0.15113682
150	0xbdcae2fd	-0.09906576
151	0xbed05085	-0.40686432
152	0xbf1a0e7e	-0.60178363
153	0x3ee89ef1	0.45433763
154	0x3f6d162f	0.92611974
155	0x3e927d81	0.28611377
156	0xbe0052ec	-0.12531632
157	0x3f4b2167	0.7934784
158	0xbd9ef777	-0.07762044
159	0xbeac5f39	-0.336664
160	0x3fd39ef0	1.6532879
161	0xbae29c02	-0.0017288926
162	0xc095bca0	-4.6792755
163	0x3e695428	0.2278601
164	0xbe602714	-0.21889907
165	0xbf9dd650	-1.2331028
166	0x3f9225b7	1.141776
167	0xbe55ba55	-0.20871861
168	0x3f37dfd4	0.7182591
169	0xbf7ab22d	-0.97928125
170	0xbf8be58b	-1.0929426
171	0x3ed9fce7	0.42575762
172	0xbf1ac433	-0.60455626
173	0x3f4841f5	0.7822564
174	0xbe7dfcaf	-0.24803422
175	0xbfd5119a	-1.6645997
176	0x4006f58a	2.1087365
177	0xbf91e22e	-1.139715
178	0xbe0e57ff	-0.13900755
179	0xc08f14ec	-4.471304
180	0x3e86d997	0.26337883
181	0xbf1296a1	-0.5726109
182	0xbf01b423	-0.5066549
183	0x3e60d923	0.21957831
184	0x3f89067a	1.0705101
185	0xbf019b57	-0.50627655
186	0x3f8b4f45	1.0883566
187	0x3e06c5cd	0.13161393
188	0x3d931619	0.07181949
189	0xbe7bafdd	-0.24578805
190	0xbf4713c7	-0.7776455
191	0x3d9b0701	0.07569695
192	0xbdf3608c	-0.11883649
193	0x3ef56da6	0.47935218
194	0x3e831eb4	0.25609362
195	0x3dc00538	0.093759954
196	0x3d0b6084	0.03402759
197	0x3f11e9d3	0.5699741
198	0xbee491a2	-0.4464236
199	0xbed909b7	-0.42390224
200	0x3f2d83e1	0.67779356
201	0x3f94be7b	1.162063
202	0xbf1aabaa	-0.6041819
203	0xbf059bd2	-0.5219089
204	0xbf6a3aff	-0.9149627
205	0x4029eda9	2.6551306
206	0x3ef1caf7	0.47225162
207	0xbf259fed	-0.6469715
208	0x3e818411	0.2529607
209	0x3ddcdddc	0.10784504
210	0xbf53295f	-0.82485
211	0xbec33fe2	-0.38134676
212	0x401ed27e	2.4815974
213	0x3fd9b486	1.7008216
214	0x3e4bc76b	0.1990029
215	0x3f05e5fc	0.52304053
216	0x3e87f65a	0.2655514
217	0xbf984c83	-1.189835
218	0x409987cc	4.797827
219	0x3faf176d	1.3679024
220	0x3e406bbb	0.18791096
221	0x3f3c9b30	0.736743
222	0xbf3b4a0a	-0.7315985
223	0x3f2e8abe	0.68180454
224	0xbf10f0af	-0.56617254
225	0x3f909966	1.1296813
226	0x3f9a8d56	1.2074382
227	0xbeb9dd4d	-0.36301652
228	0xbe20e3bc	-0.15711874
229	0xbf0bd013	-0.5461437
230	0xbeb2b6df	-0.34905145
231	0xbebbc132	-0.36670834
232	0xbed92e30	-0.4241805
233	0x3dc60407	0.09668737
234	0x3f0242e3	0.5088331
235	0x3e420834	0.18948442
236	0x3ead25c2	0.3381787
237	0x3f578464	0.8418639
238	0xbeb61678	-0.35564017
239	0xbef7bc20	-0.48385715
240	0x3f23f34e	0.6404313
241	0xbe054e3c	-0.13018125
242	0x3f2f1a6b	0.68399686
243	0x40a53dac	5.1637783
244	0x3f2706dd	0.6524485
245	0xbaa4cccb	-0.001257324
246	0xbee2a06a	-0.4426301
247	0x3f04dd12	0.51899827
248	0x400cd298	2.2003536
249	0xbd74acf2	-0.059735246
250	0xbe98ed0d	-0.29868355
251	0xbebf046d	-0.37308064
252	0xbd9aebf8	-0.07564539
253	0x3ebe7198	0.3719604
254	0xbf69f469	-0.91388565
255	0x4081ac32	4.05227

fc1.bias f4 [20]
0	0x3da67c88	0.08129221
1	0x3d65f517	0.05614194
2	0x3d533279	0.051561806
3	0x3bb35d31	0.0054737558
4	0x3e258b10	0.1616633
5	0x3d5db2c1	0.05412555
6	0x3d8fd4ea	0.07023032
7	0x3da166fd	0.078809716
8	0x3e4c8fe4	0.19976765
9	0x3dc5e502	0.096628204
10	0xbccb7a07	-0.02483846
11	0x3da91c8a	0.082573965
12	0x3df5e46a	0.12006457
13	0x3d9d6844	0.07685903
14	0xbce050cc	-0.027382277
15	0x3b2efa0a	0.0026699328
16	0xbcb7f7d8	-0.022457048
17	0x3d6d866e	0.05798953
18	0x3cc3a48d	0.023882175
19	0x3dbd622a	0.09247239

fc2.weight f4 [2227, 20]
0	0x3ee555d6	0.4479205
1	0x3f399e9f	0.7250766
2	0x3f25bcd3	0.6474125
3	0x3f5e7e20	0.869112
4	0xbcd0b7d6	-0.025478285
5	0x3fa4b2b3	1.2867035
6	0x3fbac74d	1.4592072
7	0x3f1799a7	0.5921883
8	0x3e8e820c	0.27833593
9	0xbfde7ea9	-1.7382404
10	0x3f34b482	0.70587933
11	0xbfbd23b5	-1.4776522
12	0x3e11a465	0.14222868
13	0xbfd23a3a	-1.6424019
14	0xbdeb5b36	-0.114920065
15	0xbebaf194	-0.36512434
16	0x3f62e3af	0.8862867
17	0xbfed5b4b	-1.8543485
18	0xc05e2eaa	-3.4715981
19	0x3e3649de	0.17801616
20	0xbfa38d51	-1.2777501
21	0xbfb83aa8	-1.43929
22	0xbfae3781	-1.3610688
23	0xbfaa98d1	-1.3327886
24	0xbfc628e9	-1.5481235
25	0xbf9a44f4	-1.2052293
26	0xbfb9f6b7	-1.4528416
27	0xbfbfe5e2	-1.499203
28	0xbfb8626a	-1.4405034
29	0xbfa6313c	-1.2983775
30	0xbfa94942	-1.3225482
31	0xbfb3946c	-1.402967
32	0xbfb6ec9c	-1.4290957
33	0xbfbec14d	-1.4902741
34	0xbfc2a5e6	-1.5206878
35	0xbfb642f4	-1.4239182
36	0xbfa812e3	-1.3130764
37	0xbfc128db	-1.5090593
38	0xbfbde2eb	-1.4834875
39	0xbfc043dc	-1.5020709
40	0xbf70f382	-0.94121563
41	0x3f11ed9a	0.57003176
42	0xbf087a36	-0.5331148
43	0xbfff307c	-1.9936671
44	0xbf5a799d	-0.8534182
45	0x3e83994d	0.25702897
46	0x3ee22583	0.44169244
47	0x3e919e15	0.2844092
48	0xbf4262da	-0.75932086
49	0x3f3c9d20	0.73677254
50	0x3ebcd73b	0.36882958
51	0x3f185fac	0.59520984
52	0x3ed126c1	0.4084988
53	0x3ece0986	0.4024164
54	0xbf270ec9	-0.65256935
55	0x3e6737de	0.22579905
56	0x3f11fe64	0.57028794
57	0xbf727114	-0.94703794
58	0x3ec56d12	0.38559777
59	0x3ea7f520	0.32804203
60	0xc005f28f	-2.0929296
61	0xc0295977	-2.6460855
62	0xbd147885	-0.03624775
63	0xbfdf349c	-1.743793
64	0xbdf41f21	-0.1192
65	0xc097afdb	-4.7402167
66	0xbe4c2b7f	-0.19938467
67	0xbd73f941	-0.05956388
68	0xbd7a7e48	-0.061155587
69	0xbfc96f78	-1.5737143
70	0xbf21de60	-0.6322994
71	0xbf5ddae4	-0.86662126
72	0xbd8bb5e2	-0.06821801
73	0xbdbacf8f	-0.0912162
74	0xbdf487c0	-0.11939955
75	0xbe03e046	-0.12878522
76	0xbdf45f85	-0.119322814
77	0xbdd94800	-0.10609436
78	0xbdcb86aa	-0.099377945
79	0xbe63afd9	-0.2223505
80	0x3e2e4636	0.17018971
81	0xbd11d2d2	-0.035601445
82	0xbe5806ea	-0.21096388
83	0xbd051848	-0.03249386
84	0x3cc35bab	0.023847422
85	0x3e93d503	0.28873453
86	0x3e7c37f8	0.24630725
87	0xc002460a	-2.0355248
88	0xbe2906e7	-0.1650654
89	0x3e3bdd14	0.18346053
90	0xbff95ae5	-1.9480864
91	0x3dd83269	0.1055649
92	0xbf229ea7	-0.63523334
93	0x3e1ddc6f	0.1541612
94	0xbe3d4d09	-0.18486418
95	0x3da84efc	0.0821819
96	0xbf4493ad	-0.76787835
97	0xbe924dd5	-0.28575006
98	0xbea3d25a	-0.31996423
99	0xbfe05f4b	-1.7529081
100	0x3ea4b8a8	0.32172132
101	0x3d7a3c3b	0.061092597
102	0x3e39046a	0.1806809
103	0x3e9c68fe	0.30548853
104	0x3e6a1c6a	0.22862402
105	0x3e6b917e	0.2300472
106	0x3ed2e5dd	0.41190997
107	0x3e18041f	0.14845322
108	0x3bbb0038	0.005706813
109	0x3e01ce6b	0.12676398
110	0xc08a108b	-4.3145194
111	0xbec2ad59	-0.3802288
112	0x3e575329	0.21027817
113	0xbfc3adf5	-1.5287462
114	0x3e6523c9	0.22376932
115	0xbe827c4c	-0.25485456
116	0xbe7daaea	-0.2477223
117	0xbffc4bd7	-1.9710644
118	0xbe38f027	-0.18060361
119	0xbf8a69da	-1.0813553
120	0x3d96f6a6	0.07371263
121	0x3c3f755a	0.011685694
122	0xbef09151	-0.46985868
123	0xbda5b8c0	-0.08091879
124	0x3dd3ce1b	0.10342046
125	0x3e519972	0.20468691
126	0x3d1b52e5	0.03792085
127	0xbea1b9a1	-0.31586936
128	0xc018a5cb	-2.3851192
129	0x3df64290	0.120244145
130	0x3c083e97	0.008315704
131	0xbcb64677	-0.022250397
132	0xbf0c463f	-0.5479469
133	0xbf8df2a0	-1.1089668
134	0xc0b0d1f8	-5.525631
135	0xbe526bc1	-0.20548917
136	0x3d6680ef	0.056275304
137	0xbf892abb	-1.0716165
138	0xc063d770	-3.5600243
139	0x3d7f3ba2	0.06231273
140	0x3edb5eef	0.42845866
141	0x3e29cb99	0.16581573
142	0xbeb5468b	-0.35405383
143	0x3b60c5a1	0.0034297484
144	0x3e420b94	0.18949729
145	0xbeb0125e	-0.34389013
146	0x3e7dd028	0.24786437
147	0xc0a6f8d4	-5.2178745
148	0xc06aaf91	-3.6669657
149	0x3e4443bf	0.19166468
150	0x3d81995c	0.06328079
151	0x3e3f57b8	0.18685806
152	0xbd8912ac	-0.066930145
153	0x3d77f46a	0.060535826
154	0xbfa918de	-1.3210714
155	0xbfa3989d	-1.2780949
156	0x3d942005	0.0723267
157	0x3ceb1c3f	0.028699992
158	0xbe383108	-0.17987454
159	0xbe4fbe02	-0.20287326
160	0x3d27144e	0.04079085
161	0xbef0fb11	-0.47066548
162	0xc0341683	-2.813874
163	0x3cd9b2ea	0.02657457
164	0xbe820dd5	-0.25401178
165	0x3d89dff9	0.067321725
166	0x3c824950	0.015904099
167	0x3c5c32a0	0.013439804
168	0xc0277c6a	-2.6169686
169	0xbfa20a6a	-1.2659428
170	0xbf8e66b7	-1.1125096
171	0x3d105a1f	0.035242196
172	0xbe0dda4b	-0.13852803
173	0xbd884149	-0.06653077
174	0xbadc4b85	-0.0016807175
175	0xbeaba738	-0.33526015
176	0xbf9d8c5f	-1.2308463
177	0xbf8188d6	-1.0119884
178	0x3d051f0b	0.032500308
179	0xbe925caa	-0.28586322
180	0xc003359b	-2.0501468
181	0xbcd8a5d8	-0.026446268
182	0xbf1548f3	-0.58314437
183	0x3d651930	0.055932224
184	0xc032a770	-2.7914696
185	0x3e0eb15f	0.13934849
186	0x3e3c2316	0.18372759
187	0xbf7c997e	-0.9867171
188	0xc0cc97a3	-6.3935103
189	0x3cea4476	0.028597098
190	0x3e4bd0b0	0.19903827
191	0x3d91788e	0.07103072
192	0x3d45de28	0.048307568
193	0x3d8401c8	0.06445652
194	0x3dbc00cc	0.091798395
195	0x3e800541	0.25004008
196	0xc069c726	-3.65278
197	0x3db44a7f	0.088032715
198	0x3dafce86	0.08584313
199	0xc06e6964	-3.7251825
200	0xbf133897	-0.57508224
201	0xbbc3b191	-0.0059720953
202	0xbdcedd89	-0.10100848
203	0xbfb015ce	-1.3756654
204	0xbedcbbbe	-0.43111986
205	0xc000d1b2	-2.0127988
206	0xc0bfb457	-5.990764
207	0xbda6ae5b	-0.081387244
208	0xbd836302	-0.064153686
209	0xbcb40051	-0.021972807
210	0xbfff5ac9	-1.994958
211	0xbd52101c	-0.051284894
212	0xbdeb3441	-0.11484576
213	0xbd8e6b66	-0.069540784
214	0xbed01584	-0.40641415
215	0xbf34505e	-0.7043513
216	0xbe32ee4c	-0.17473716
217	0xbd94172f	-0.072309844
218	0x3bb82eb7	0.005620803
219	0xbe50cb39	-0.20390023
220	0xbcf103c6	-0.029420745
221	0xbeb64801	-0.3560181
222	0xc029f57a	-2.6556077
223	0xbe257c0d	-0.16160603
224	0xbe4b593b	-0.19858257
225	0xbef4de11	-0.47825673
226	0xbd945b0c	-0.07243928
227	0xbdc0a452	-0.094063416
228	0x3d401bb9	0.04690144
229	0xc0821056	-4.064494
230	0x3df88655	0.12134997
231	0xbea31bb8	-0.31857085
232	0xbddd239c	-0.107978076
233	0xbda21503	-0.07914164
234	0xbd9d35ad	-0.076762535
235	0xc0506204	-3.2559824
236	0x3e0def40	0.13860798
237	0xbcbb0f00	-0.022834301
238	0xbd19b6ca	-0.037527837
239	0xc03b8e52	-2.9305615
240	0x3ccaf4c2	0.024774913
241	0xbcec9286	-0.028878462
242	0xbe20f3d9	-0.1571802
243	0xc02c2e2a	-2.6903176
244	0xbd21ef78	-0.039535016
245	0xbdb575e1	-0.08860374
246	0xbf016f06	-0.50560033
247	0xbc3acb50	-0.011401013
248	0xbf2dce5f	-0.6789302
249	0xbdbe6907	-0.09297376
250	0xbefcc77d	-0.49370947
251	0xbe9a2f07	-0.30114004
252	0xbf1e7919	-0.6190353
253	0xbe89dfc1	-0.26928523
254	0xbeba5764	-0.363948
255	0xc0bb43c0	-5.8520203

fc2.bias f4 [2227]
0	0xbc965782	-0.018352274
1	0xc00f5707	-2.2396867
2	0xbe0fb732	-0.14034727
3	0xbe0fdd10	-0.14049172
4	0xbe1c11a5	-0.15241106
5	0xbe08e1a9	-0.13367333
6	0xbd5f07f9	-0.054450963
7	0xbd82ccff	-0.06386756
8	0xbddf76dd	-0.10911343
9	0x3d0da962	0.034585364
10	0xbe254338	-0.16138923
11	0xbe03ce88	-0.12871754
12	0xbe1cd65f	-0.15316151
13	0x3d63d599	0.055623624
14	0xbe304bb0	-0.17216372
15	0xbe111cfa	-0.1417121
16	0xbd75854e	-0.059941582
17	0xbd9d821a	-0.076908305
18	0xbe5342d9	-0.20630969
19	0xbe76ec3a	-0.24113551
20	0xbe0e73de	-0.13911387
21	0xbe47a9e6	-0.19498405
22	0xbe76264e	-0.2403805
23	0xbe843be9	-0.25826958
24	0xbc2d7540	-0.010587037
25	0xbdea2d15	-0.1143438
26	0xbdbfb6e9	-0.09361059
27	0xbe41813f	-0.1889696
28	0xbdceadee	-0.10091768
29	0x3d22859f	0.039678212
30	0xbd9e111a	-0.077181056
31	0xbdfe04c6	-0.12403254
32	0xbd9ff15f	-0.0780971
33	0xbe99401b	-0.2993172
34	0xbdf1b4fc	-0.11802098
35	0xbd9497d4	-0.072555214
36	0xbdb991e2	-0.09061028
37	0x3dc9d078	0.098542154
38	0x3dbebe36	0.093136236
39	0xbe16fbc2	-0.14744475
40	0x3d259396	0.040423952
41	0x3d8dd36f	0.069250934
42	0xbe0e2f70	-0.13885283
43	0xbe1ad7bf	-0.15121363
44	0xbda6b754	-0.08140436
45	0x3d8a5d77	0.06756108
46	0xbdee4efe	-0.1163616
47	0x3cda2cf3	0.026632762
48	0x3d252f4d	0.040328313
49	0xbe1c6930	-0.15274501
50	0x3da9f573	0.08298769
51	0xbe7a32f6	-0.24433503
52	0xbe178ee9	-0.1480061
53	0xbc8ed18b	-0.017433902
54	0xbdddeb58	-0.10835904
55	0xbe6816a7	-0.22664891
56	0xbe1e37cc	-0.15450972
57	0xbdd0a275	-0.10187236
58	0xbe0bebfa	-0.13664237
59	0xbdf90039	-0.121582456
60	0xbe32eb38	-0.17472541
61	0xbdc907c7	-0.098159365
62	0x3ca6911e	0.02033287
63	0x3c5e02e6	0.013550496
64	0xbd75cb26	-0.06000819
65	0xbe20daf9	-0.15708531
66	0xbe120b60	-0.14262152
67	0xbe670dcd	-0.22563858
68	0xbe4288a9	-0.18997444
69	0xbd14d7a0	-0.03633845
70	0x3b9ee216	0.004848729
71	0xbdb87ff8	-0.09008783
72	0xbc9bfde1	-0.019041957
73	0x3dc6ce57	0.09707325
74	0x3e48cafe	0.19608685
75	0xbeac71fe	-0.3368072
76	0x3c1d966a	0.009618381
77	0x3d497904	0.049187675
78	0xbde6a54d	-0.11261997
79	0x3e28f941	0.16501333
80	0xbc601f59	-0.013679349
81	0xbd8950a8	-0.06704837
82	0xbe45cd9e	-0.19316718
83	0xbe70f837	-0.23532186
84	0xbd261eeb	-0.04055683
85	0x3e052db3	0.13005714
86	0xbd984c9e	-0.074364886
87	0xbd86b957	-0.065783195
88	0xbe7595f7	-0.23982988
89	0xbdd883c0	-0.10572004
90	0xbd9844da	-0.074350074
91	0xbe631837	-0.22177206
92	0x3e4cb990	0.19992661
93	0xbe64bbed	-0.22337313
94	0xbe6627e8	-0.2247616
95	0xbe184e87	-0.14873706
96	0xbdebd3a7	-0.11514979
97	0xbcef033d	-0.029176349
98	0x3e24f19b	0.1610779
99	0x3c3ec7b1	0.01164429
100	0xbe88be4d	-0.26707688
101	0xbdbc8271	-0.09204567
102	0xbe982bc7	-0.297209
103	0xbc708127	-0.01467923
104	0xbd7f3421	-0.062305573
105	0xbdcd3ace	-0.10020982
106	0xbe66ff32	-0.22558287
107	0xbe86f60e	-0.263596
108	0x3c18ac38	0.009318404
109	0xbdc4aa9e	-0.09602855
110	0xbe0717a0	-0.13192606
111	0xbdae739b	-0.08518144
112	0xbe5af359	-0.21381892
113	0xbd553205	-0.052049655
114	0xbd7f4424	-0.062320843
115	0xbe34a72e	-0.17641899
116	0x3e21b5dc	0.1579203
117	0xbd398bae	-0.045299225
118	0xbde8d68a	-0.11369045
119	0xbe635197	-0.22199093
120	0xbb89a2de	-0.0042003235
121	0x3e236b31	0.15958859
122	0xbdb6e01b	-0.089294635
123	0xbe0ab3e2	-0.13545182
124	0xbd69b998	-0.05706176
125	0xbddb1412	-0.106971875
126	0xbdc6593e	-0.0968499
127	0xbe37b967	-0.17941819
128	0xbd91eb26	-0.07124929
129	0xbe09abd5	-0.13444455
130	0xbdc52e47	-0.09627967
131	0xbeb17fb5	-0.34667745
132	0x3dee4651	0.116345055
133	0xbd3c69ea	-0.045999445
134	0xbe3e72fa	-0.18598548
135	0xbd093cab	-0.033505123
136	0xbcbb0071	-0.022827359
137	0xbd06420e	-0.03277784
138	0xbe7b0eb3	-0.24517326
139	0x3d8eda92	0.06975283
140	0xbe155477	-0.14583002
141	0xbe69c2b6	-0.22828183
142	0xbe35ad43	-0.17741875
143	0xbe5a6cba	-0.21330538
144	0xbe227906	-0.1586648
145	0xbd89ba0c	-0.06724939
146	0xbe375952	-0.17905167
147	0xbe5575b8	-0.20845687
148	0xbe13966c	-0.1441285
149	0xbde0a34f	-0.10968649
150	0xbe33dd10	-0.17564797
151	0xbe62a4bb	-0.22133152
152	0x3c851e4c	0.016249798
153	0xbe372bea	-0.17887846
154	0xbd9930ad	-0.07479987
155	0xbd0c9bd4	-0.034328297
156	0xbe05406d	-0.13012858
157	0xbde03f5b	-0.10949584
158	0xbe54acc8	-0.20769036
159	0x3d869cff	0.065729134
160	0xbd9a262b	-0.07526811
161	0xbe83d5d0	-0.25749063
162	0xbe024e59	-0.127252
163	0xbe314d70	-0.17314696
164	0xbe0ac1f8	-0.13550556
165	0xbe265215	-0.1624225
166	0xbe7fe047	-0.24987899
167	0xbe2d5ec3	-0.1693068
168	0x3cb21313	0.02173761
169	0xbd87ec3a	-0.066368535
170	0xbe51cb83	-0.2048779
171	0xbd4a5d54	-0.04940541
172	0xbe16a449	-0.14711107
173	0xbe840bca	-0.25790244
174	0xbe85140c	-0.25991857
175	0xbe3fc8fb	-0.18729012
176	0xbe0e0b18	-0.1387142
177	0x3c7c3e5e	0.015395729
178	0xbe038947	-0.12845336
179	0xbe22715a	-0.15863553
180	0xbdf29937	-0.1184563
181	0xbe4e3140	-0.20135975
182	0x3e2f9063	0.17144923
183	0xbdb8b5a6	-0.09019022
184	0xbd826b27	-0.06368094
185	0x3db109e3	0.08644464
186	0xbd9f2b18	-0.07771891
187	0x3e2df88a	0.16989341
188	0xbe0f55d3	-0.13997583
189	0xbe6339f6	-0.22190079
190	0x3ddd92f9	0.108190484
191	0x3da3a50f	0.07990467
192	0xbd3c02f2	-0.045901246
193	0xbe53dd34	-0.20689851
194	0xbd70528a	-0.058672465
195	0xbe4e33e3	-0.2013698
196	0xbddd2659	-0.1079833
197	0xbe4ac7b7	-0.19802748
198	0xbe60a3d0	-0.2193749
199	0xbe7394d6	-0.23787245
200	0x3b92ce7d	0.0044801817
201	0xbcd896db	-0.026439121
202	0xbe296fcc	-0.16546553
203	0x3c55d0c1	0.013050259
204	0xbd148133	-0.036256026
205	0xbe41d5d5	-0.18929227
206	0xbe3d1ec2	-0.18468764
207	0xbe1be29c	-0.15223163
208	0x3da5856a	0.08082087
209	0xbe1560c6	-0.14587697
210	0xbe230634	-0.15920335
211	0x3d4234ba	0.047413565
212	0xbe051691	-0.1299689
213	0xbdc87406	-0.09787755
214	0xbdfdadf0	-0.123866916
215	0xbdc76e3e	-0.09737824
216	0x3e5c91a8	0.21539938
217	0xbe4566ed	-0.19277544
218	0xbdb026e1	-0.086011656
219	0xbe352966	-0.17691574
220	0xbe942f50	-0.28942347
221	0x3c9d28a6	0.019184422
222	0x3e3992ce	0.18122408
223	0x3d2c6ad9	0.042094085
224	0xbd7cb634	-0.0616972
225	0xbe29ecdf	-0.16594265
226	0xbdf21896	-0.11821096
227	0xbdf65859	-0.1202857
228	0xbe4ff9a6	-0.20310077
229	0xbcb53c31	-0.022123428
230	0xbd958954	-0.07301584
231	0x3d979ba0	0.0740273
232	0xbd95387f	-0.072861664
233	0xbe1fe09a	-0.15613022
234	0xbe285eab	-0.16442363
235	0xbe530813	-0.20608549
236	0xbe1c2971	-0.15250184
237	0xbe4e5893	-0.20150976
238	0xbe583930	-0.21115565
239	0xbe305ceb	-0.17222945
240	0xbe094e00	-0.13408661
241	0xbded97d7	-0.11601227
242	0xbdd758a5	-0.105149545
243	0xbe1fbeeb	-0.15600173
244	0xbdc67367	-0.0968998
245	0x3e829ea1	0.2551165
246	0xbdc3b0ec	-0.095552295
247	0xbda28092	-0.07934679
248	0xbe6eff13	-0.2333949
249	0x3c8b69fb	0.017018309
250	0xbd8d51e3	-0.06900384
251	0x3e485142	0.19562247
252	0xbe15b71f	-0.14620636
253	0xbd89b010	-0.067230344
254	0xbe2e7123	-0.17035346
255	0xbd06e644	-0.032934442
