weights/150_epochs_stemmed_weights.pth (torch, 321696 bytes, 5 tensors)

embed.weight f4 [1929, 20]
000000 16 92 85 38 02 96 13 3a ca 2f 80 39 e7 d1 08 ba
       6.369145e-05 0.0005629958 0.00024449668 -0.0005219266
000010 06 57 cd 39 c8 84 ba 3a b4 25 4a ba 14 aa 0d ba
       0.00039165484 0.0014230246 -0.00077113067 -0.0005404067
000020 58 d9 89 39 f9 63 be b9 06 50 10 ba 1a 3b 29 b8
       0.0002629261 -0.0003631411 -0.00055050885 -4.0347782e-05
000030 6a b6 34 3a e6 99 46 b8 67 fe 00 3a fe fe 20 b9
       0.0006893637 -4.7350208e-05 0.00049207214 -0.00015353781
000040 59 6c 73 b9 c4 5b 5f 3a 24 72 6a ba 3c a7 8a 37
       -0.00023214649 0.0008520449 -0.00089434 1.6528757e-05
000050 98 01 49 3b f3 71 23 bf 15 40 99 be c8 fa ac 3d
       0.0030671116 -0.6384575 -0.29931703 0.0844627
000060 88 95 72 bb 40 eb 8c 3e 78 75 09 3f 69 4a 93 be
       -0.0037015397 0.27523232 0.5369487 -0.28767708
000070 8e 5a 13 be 5e 95 6e bf cc a3 5c be 19 c3 94 3e
       -0.14390013 -0.93196666 -0.21546859 0.29055098
000080 a5 76 41 3d b1 22 27 bd 6f f1 0a 3f 60 67 29 3b
       0.04723229 -0.04080457 0.5427465 0.002584897
000090 bf 95 5d bd 74 c6 b8 3e 4c b4 b9 be 9d 18 f8 be
       -0.054097887 0.36088908 -0.36270368 -0.48456278
0000a0 d5 2d 09 3f 7a e4 4d 3c 97 40 fd 3d de 9c ac be
       0.5358556 0.01256668 0.12365835 -0.3371343
0000b0 14 bf 47 bb 3c a2 12 3f 0d 6d b2 bc 57 60 d5 3c
       -0.0030478882 0.572788 -0.021780515 0.026046915
0000c0 5e 1f 2a 3f 26 85 aa 3d 64 88 74 3e d3 4f db 3d
       0.6645411 0.08326177 0.23880154 0.10708585
0000d0 12 7d b3 be f9 22 29 3f 10 c8 97 be f4 d1 bf be
       -0.3505636 0.6606899 -0.29644823 -0.3746487
0000e0 a5 97 e1 3e af d3 87 3e 3f f5 2d bd f2 53 f1 3e
       0.44061008 0.2652869 -0.042470213 0.47134358
0000f0 76 d3 05 bf 99 d7 01 bf 1e b4 03 bf c2 ac f9 be
       -0.5227579 -0.507196 -0.5144671 -0.48764616
000100 da 3e f6 3e 07 8a 05 bf 44 a3 c7 bd 39 11 05 bf
       0.48094827 -0.5216374 -0.09747937 -0.51979405
000110 4f e1 01 bf 38 bd 8a be 15 a3 ed be 98 65 29 3e
       -0.5073442 -0.27097487 -0.46413484 0.16542661
000120 f1 46 64 3e 4e 1c ac 3e fb af fb 3e 91 f9 29 3e
       0.22292687 0.33615345 0.491577 0.16599108
000130 a6 d8 3b bd 58 2f f3 3e d5 74 49 be 95 ec 03 3f
       -0.04586091 0.47497058 -0.19673474 0.5153287
000140 db 6c b8 be f3 d6 73 be 97 af d7 be f1 0a b4 3e
       -0.3602055 -0.23812465 -0.42126152 0.35164598
000150 34 4e 2d 3e 5f 1e 63 be 3b a3 e3 be 29 4c 0f bf
       0.16924363 -0.22179554 -0.44460472 -0.55975586
000160 fd 59 89 bf 11 80 03 bd f0 f2 04 bd 9e ea f2 3e
       -1.0730587 -0.032104556 -0.032458246 0.47444624
000170 0f 74 f2 be 49 5e 14 3f a2 47 ef 3e 7a 45 ac 3e
       -0.4735417 0.5795637 0.4673434 0.33646756
000180 d6 05 9c be a3 2f 42 3f 8e 58 85 bd d1 1a 63 3f
       -0.30473202 0.7585394 -0.06511031 0.88712794
000190 fb ef 65 3e bf ce 39 3e b5 c1 68 be c8 75 93 be
       0.22454827 0.18145274 -0.22730143 -0.28800797
0001a0 92 d9 e1 bd 1b 84 5f bd e3 65 e8 3d 19 38 bf be
       -0.11027826 -0.054569345 0.11347558 -0.37347487
0001b0 9a 4b 42 bc 67 a7 35 3e 53 96 3c 3d 2d bc 69 3c
       -0.011858845 0.1773964 0.046041798 0.014266056
0001c0 23 52 d7 bc 88 92 1f bd 4b f9 a6 3d 86 56 83 be
       -0.026284283 -0.038958102 0.081530176 -0.2565195
0001d0 77 55 2c 3d e2 b6 8e bd cf fb c5 3e c7 7d 26 bf
       0.042073693 -0.06968476 0.38668677 -0.6503567
0001e0 09 0a 07 3f 69 b9 03 bf ed 83 be 3e 2c fd 05 bf
       0.5274969 -0.5145479 0.37210026 -0.52339435
0001f0 c1 e8 c6 be f7 1d 0c 3e b9 9c 48 be c1 8d bc bd
       -0.38849452 0.13683306 -0.19591035 -0.09206725
000200 aa 06 01 bf 02 d2 9c be ca c8 04 bf 7d d1 02 3f
       -0.50400794 -0.30628973 -0.5186888 0.51100904
000210 0c a9 f5 be b0 f8 06 3f 9c 1c 02 bf dd c1 ff be
       -0.47980535 0.52723217 -0.50824904 -0.49952593
000220 7c ee 04 bf 64 72 f9 3e 8f 7d 06 3f 96 46 9a bd
       -0.519264 0.48720086 0.5253534 -0.075329944
000230 90 8d 21 be ce 5f 6e 3c 78 6c c8 be 7e 54 7a 3e
       -0.15776658 0.014549209 -0.39145255 0.24446294
000240 04 0b 61 3d e4 d4 c1 3e 05 f9 f1 3d 9e eb bc be
       0.054942146 0.37857735 0.11815075 -0.36898512
000250 21 61 70 be 9f 45 db be cd a8 41 bc b9 94 fb 3d
       -0.23474552 -0.42826554 -0.01182003 0.12284226
000260 51 a5 2a be 42 e8 1d 3e 0b 8c c0 3e 48 a9 06 be
       -0.16664626 0.1542063 0.37606844 -0.13150513
000270 43 79 14 be 51 46 2c bd 6a 70 97 3d e4 16 a4 be
       -0.14499383 -0.042059246 0.07394488 -0.32048714
000280 cf 55 89 3e cf 79 22 be 40 1d 06 be 93 a2 d1 3e
       0.2682328 -0.15866779 -0.13097095 0.40944347
000290 39 71 a7 be 62 89 08 3f c8 28 a7 3d ad a1 f8 bd
       -0.3270357 0.5333463 0.08162075 -0.12140212
0002a0 fc f5 8a be 00 f2 53 3d 00 2e 10 bf f4 01 40 3c
       -0.27140796 0.05174446 -0.5632019 0.011719216
0002b0 f6 93 80 3d 38 4a 77 bd f0 5d 30 3f f2 18 9b bd
       0.06278221 -0.060373515 0.6889334 -0.07573117
0002c0 d0 00 0f bc bd 17 9a 3e ee c9 e4 3d 16 86 cf bd
       -0.008728221 0.30096236 0.111713275 -0.10132997
0002d0 66 c9 8e be 14 3c f8 3e fc 9c 04 bf 81 ae 8f 3e
       -0.2788803 0.48483336 -0.5180204 0.28062823
0002e0 d3 b6 4a 3e 7d 81 00 3f 5c 58 b7 3e b9 ec 05 3f
       0.19796304 0.50197583 0.358096 0.52314335
0002f0 80 15 45 be cb 7a eb 3d f3 50 03 bf 92 58 dd 3e
       -0.19246483 0.1149803 -0.51295394 0.43231636
000300 26 ec a1 3e 9e 73 ee be 53 ad 05 bf 2b cf 90 3d
       0.3162548 -0.46572584 -0.52217597 0.07070764
000310 58 81 a7 3d 90 5b 00 3f bc cb d4 be ac 5d 00 bf
       0.08178967 0.50139713 -0.41561687 -0.5014293
000320 dc 58 ec 3e f2 bd 90 3e 63 72 c6 be 55 82 ee be
       0.46161544 0.28269917 -0.38759145 -0.4658381
000330 5c 5d 02 3e 56 db 05 bf 19 93 aa 3e 01 44 9f 3e
       0.12730926 -0.52287805 0.33315352 0.3110657
000340 64 69 07 3f f5 a6 bd bd bb 2d 2c 3e b4 c0 b1 3e
       0.5289519 -0.0926036 0.1681432 0.34717333
000350 a6 ef 05 3f ab 54 5b 3e a2 5d ab 3e be c0 12 3e
       0.523188 0.21419017 0.33469874 0.14331338
000360 9f 24 e9 3e 41 96 89 be 3d f3 07 bf 49 92 06 bf
       0.45535752 -0.26872447 -0.5310553 -0.52566963
000370 78 7c a8 bc aa a5 23 bd 29 dd e3 be e8 9d 02 bf
       -0.020567164 -0.03995291 -0.4450467 -0.51022196
000380 37 fe 00 3f 62 1d 88 be 2b 46 e0 3e e7 b7 f5 be
       0.503879 -0.26584917 0.43803534 -0.4799187
000390 bc 1e ba bd d3 95 67 3e 25 6f 37 3d a2 79 00 bf
       -0.09087893 0.22615747 0.04478373 -0.50185597
0003a0 5b cf fe 3e d5 de c3 be c8 50 b8 be 12 88 06 3f
       0.49767575 -0.38255945 -0.3599913 0.52551377
0003b0 17 97 c5 be 29 d0 c0 3e ae 01 b8 3e 3f 06 e3 be
       -0.38591835 0.37658814 0.35938781 -0.44340703
0003c0 7c 85 80 3d 8d 95 f2 3e b8 23 c0 3d 57 31 23 3e
       0.0627546 0.47379723 0.09381813 0.1593679
0003d0 02 e2 73 be 5d 7e 02 3f b3 60 f2 3e 67 4a 37 3f
       -0.23816684 0.50974065 0.473394 0.71597904
0003e0 e2 71 1b 3e 3f 7a d9 be d9 65 94 bd 1c 08 95 3d
       0.15180162 -0.4247608 -0.072459884 0.07276937
0003f0 90 f6 82 3e 12 2c a5 3c b9 7e 18 3d b8 a1 b1 3e
       0.25578737 0.020162616 0.037230227 0.34693694

fc1.weight f4 [20, 40]
000000 75 7f 3b 40 78 bd 02 bf 16 06 df 3f 7f 1b a0 3e
       2.9296544 -0.51070356 1.7423732 0.31270978
000010 df 45 49 bf 50 be 9e be fb 6d 45 3f a7 04 d3 3e
       -0.7862224 -0.31004572 0.7712094 0.41214487
000020 a1 53 a6 3e 7f f9 75 40 49 7c 7e bf 5c 58 80 c0
       0.3248568 3.843353 -0.99408394 -4.010786
000030 5a b1 60 3f a1 0b 04 40 94 cf 4b bf e1 87 87 3f
       0.87770617 2.0632098 -0.79613614 1.0588342
000040 7a f5 4b bf 4e b6 aa 3f 65 37 d5 bf 2d 52 44 3f
       -0.7967144 1.3336885 -1.665753 0.7668789
000050 09 55 e6 bd 4a bb 15 be cb 9d 3d 3f 77 29 0b 3d
       -0.11246688 -0.14622226 0.740689 0.03397509
000060 a4 da 94 3f b6 f6 17 bf c7 02 61 3f e3 1b 3d be
       1.1629224 -0.59360826 0.8789486 -0.18467669
000070 a0 ed 01 bf 9e 3a 8a be 3f 4d 6c 3f 6e 31 4c be
       -0.5075321 -0.26997846 0.9230537 -0.19940731
000080 d8 98 eb 3e d7 67 b4 be 4b ff 38 be 45 19 8b bd
       0.46015048 -0.35235474 -0.18066137 -0.06791929
000090 46 90 46 3d 52 77 09 be 94 34 7f 3e 62 51 1d bf
       0.048477434 -0.13424423 0.249224 -0.61452305
0000a0 4f 4e 7f bf 51 3f c6 3e 73 c0 88 bf 16 6f 24 3f
       -0.99728864 0.38720182 -1.0683731 0.64232004
0000b0 fc d3 78 bf fe f0 01 bf 60 53 ee bf 49 b8 88 3f
       -0.9719846 -0.5075835 -1.8619194 1.0681239
0000c0 b4 03 85 3f 8b df df be 0c 25 32 40 d1 23 63 bf
       1.0391755 -0.43725237 2.7835112 -0.88726526
0000d0 31 ab 6c 3d fd ea 57 3e 5e 88 6b bf 33 f7 03 bf
       0.05778045 0.21085735 -0.92004955 -0.5154907
0000e0 74 71 e1 bd b8 19 e9 3f ad 74 16 c0 8d 0c 90 40
       -0.110079676 1.8210974 -2.3508713 4.501532
0000f0 5d c6 e1 3e 65 92 84 3f fe 5a c4 bc 13 5b 85 be
       0.44096652 1.0357176 -0.02396917 -0.26046047
000100 1e f2 b1 3e da ba 9a 3e 87 06 f0 be b1 75 a7 3d
       0.34755033 0.3022068 -0.4687998 0.08176745
000110 54 91 78 3d 31 5e ac be 55 45 0b bf bd 9a 20 3e
       0.06068547 -0.33665612 -0.5440267 0.15684028
000120 28 03 54 be 39 92 a5 3f 89 1d 5d bf ee a3 ae 3f
       -0.20704329 1.2935249 -0.8637319 1.3643777
000130 0e c7 97 be 5f a3 e3 be d6 a1 b9 be d9 67 80 3e
       -0.29644054 -0.4446058 -0.36256284 0.2507923
000140 d9 d1 69 bf fd 9a 27 3f 14 df 85 bf 6c 41 65 c0
       -0.9133583 0.6547087 -1.0458703 -3.582118
000150 21 c7 38 bf a6 cf a5 be 57 ee 95 3c 75 d5 4b bf
       -0.72178847 -0.32384986 0.018302126 -0.79622585
000160 5b f0 95 c0 b6 76 9c be fa f6 1d be 64 56 38 c0
       -4.6855903 -0.3055932 -0.15426245 -2.8802729
000170 05 45 4d bf 80 5f f0 bf f0 f3 34 3e 5f 08 1f bf
       -0.8018344 -1.8779144 0.1767118 -0.6212215
000180 b5 92 f7 bf 54 f4 ae bf a7 1c 6e bd 6f 70 21 3f
       -1.9341646 -1.3668313 -0.058132794 0.63062185
000190 be 11 aa bd 52 88 92 be bd c2 b1 3f 7a 92 f8 3e
       -0.08304165 -0.2861963 1.3887554 0.48549253
0001a0 70 51 2b bf dd 8a be be 10 a7 1f 3f f1 87 f2 3e
       -0.6692114 -0.3721532 0.6236429 0.4736934
0001b0 f6 f0 e8 3e a4 ec 15 bf 57 76 bf 3e f3 ef 99 bd
       0.4549634 -0.5856421 0.37394974 -0.0751647
0001c0 6f 32 ed be 98 2c 92 bd 2b 22 e7 3d 3a 00 20 bf
       -0.4632754 -0.07137412 0.11285814 -0.62500346
0001d0 c0 3f 19 3e 66 ee 4d 3f 3c 9c 27 be 31 86 a6 3e
       0.14965725 0.8044189 -0.16368192 0.32524255
0001e0 fc 82 75 3f 7b 35 0a 3e a8 6c b9 c0 be 19 17 3f
       0.9590299 0.13496964 -5.7945137 0.59023654
0001f0 04 3b 8e bf 10 7d 35 bf 38 4a b9 3f 69 f2 15 be
       -1.111176 -0.70893955 1.4475775 -0.14643253
000200 3f a2 6b bf d6 21 05 be 39 cd 0b 3f 2a 92 a1 3e
       -0.9204444 -0.13001189 0.5461002 0.31556827
000210 50 61 47 3d be 36 1b 40 5b 66 5e bf 5b e1 1f 40
       0.04867679 2.4252162 -0.8687493 2.4981296
000220 48 a6 05 bf ad 61 7b 3f 03 15 1c 40 89 e6 cf bf
       -0.5220685 0.98195916 2.4387825 -1.6242229
000230 50 b2 dd be 34 14 98 be b4 49 0a bf 6e a7 6d 3f
       -0.43300104 -0.29702914 -0.5401871 0.928336
000240 db af d9 bd 8c a9 8a 3e 80 f3 16 3f 51 6b a2 bd
       -0.10629245 0.2708248 0.589653 -0.07930625
000250 83 86 42 bd 33 98 54 3f 74 35 c4 3e 2a 39 f7 bd
       -0.04749156 0.8304474 0.38322031 -0.1207145
000260 a6 ea 1f be be af d7 be 4a 57 eb 3e d8 1f 8e 3e
       -0.15616855 -0.42126268 0.45965034 0.2775867
000270 ed e2 1d 3f 7c 19 c2 bd 30 bc a1 be e9 06 c3 be
       0.61674386 -0.09477517 -0.31588888 -0.3809121
000280 6b aa c2 be 17 05 2e 40 19 6a 1f 40 7b 89 6f 3f
       -0.38020644 2.7190607 2.4908507 0.93569154
000290 6c 95 fe bf c0 7a 71 bf 53 d7 1e 40 46 a5 e4 3e
       -1.988935 -0.94327927 2.4818923 0.44657344
0002a0 d0 2e 0a c0 47 08 b0 bf a1 60 ec be e1 2a 14 40
       -2.1591072 -1.3752526 -0.46167472 2.3151171
0002b0 8e af 9f 3e 6f c9 b7 be 10 96 64 be 46 71 53 bf
       0.31188625 -0.3589587 -0.2232287 -0.82594717
0002c0 8c 2b 57 bd 18 42 84 3f 30 88 42 c0 ab eb 31 be
       -0.052531764 1.033267 -3.0395622 -0.17375056
0002d0 f0 35 2c 3f 64 ad 58 be 6d 15 82 be 2d 67 05 3f
       0.672698 -0.21159893 -0.25406972 0.5211056
0002e0 71 af aa 3e 6c 4d 99 3f 4f 0a 1b 3d 73 a7 0a bf
       0.33336976 1.1976752 0.037851628 -0.5416176
0002f0 03 94 f7 be 7e b2 14 3f 68 b1 c5 bc 78 92 20 3f
       -0.4835511 0.5808486 -0.024132445 0.62723494
000300 e7 d5 f3 be 16 2e 71 bf 82 6b 03 3f 7d 6b 43 3f
       -0.47624132 -0.94210947 0.5133592 0.7633589
000310 ad 09 29 be 24 ca 44 bf ed 98 6c 3f 4a e6 ea be
       -0.16507597 -0.7687094 0.92420846 -0.45878822
000320 d8 ae 0f bf bf 8d 05 be 92 b2 2a 3f 7a 34 5c 3f
       -0.56126165 -0.13042353 0.66678727 0.8601757
000330 db f5 dc bf 2b 16 f0 3f e6 df c8 bf b7 14 2a 3f
       -1.7262529 1.8756765 -1.5693328 0.6643786
000340 8d 8d 99 bf a5 18 58 40 10 1f 08 be 74 7d 73 3f
       -1.1996323 3.3765042 -0.132931 0.951133
000350 98 c3 1b c0 26 13 ec 3f d3 e0 11 be 51 ff 75 bf
       -2.433813 1.8443344 -0.1424592 -0.96092707
000360 34 cb 1c 3f 63 fc d1 be 82 ce e6 3f db 0c e1 3d
       0.61247563 -0.41012868 1.8031771 0.1098878
000370 8f dd e5 bd 52 7d 6c 3d 79 d9 3f be 21 ea 7a 3f
       -0.112238996 0.057736702 -0.18735303 0.980135
000380 52 75 0d be 2d 70 df 3e 35 17 18 3f 4a 90 d8 be
       -0.13814285 0.4364027 0.5941041 -0.42297584
000390 34 47 99 be 7d cd 34 3f 53 9f 58 be 48 dc a7 3e
       -0.29937136 0.7062605 -0.21154527 0.3278525
0003a0 aa 9b d1 bf 7d 35 ca 3e 9c 29 f9 3f 59 22 cc be
       -1.637563 0.39493933 1.9465823 -0.39869955
0003b0 b8 66 d9 bd d5 ae 47 bf cd bb 06 3c 16 40 ff be
       -0.10615295 -0.7800115 0.008223486 -0.4985358
0003c0 79 65 0a c0 b0 8f d3 bf f0 f9 22 3f 06 56 f9 3f
       -2.1624434 -1.6528225 0.63662624 1.9479377
0003d0 5a 8f 9d 3f 03 69 65 bf 9c 7c e7 be 75 29 3b c0
       1.2309372 -0.8961336 -0.45212257 -2.9244053
0003e0 23 e0 0f c0 69 5d a8 bf c8 5b be bf 7f fc 03 3e
       -2.2480552 -1.3153507 -1.487176 0.12889288
0003f0 dd 4a 00 40 2e 07 7e 3e b2 6d ec bf 99 e3 b1 bf
       2.0045693 0.24807426 -1.8470976 -1.3897582

fc1.bias f4 [20]
000000 d2 a4 a2 bc 48 bd d3 3d 57 05 90 bc e4 a7 eb 3d
       -0.019853983 0.10338837 -0.017580671 0.11506632
000010 c9 6a 3b 3e 96 fd 91 3d 40 0d f9 3d 79 3a ed 3d
       0.18302454 0.07128446 0.1216073 0.115834184
000020 cb 8f 19 3e 4d 76 21 3e 35 02 b4 3a b6 c1 a2 3d
       0.14996259 0.15767784 0.0013733568 0.07947104
000030 49 21 3f bd 20 2f c3 3d 74 c3 a2 3d 8a 61 4b 3d
       -0.046662603 0.09530473 0.07947436 0.049653567
000040 5d f4 b6 3c 44 0e c9 3c ad 98 53 3c 82 b8 68 bc
       0.022333318 0.024542935 0.012914819 -0.014204146

fc2.weight f4 [1929, 20]
000000 08 77 e6 be b5 88 7f 3e 6e 04 4f 3f dd 93 52 3f
       -0.4501269 0.24954493 0.80866134 0.8225687
000010 1b 4c 7f bf 1a c6 9b c0 c6 38 9c bd b3 0a ba 3e
       -0.997255 -4.8679323 -0.07628016 0.36336288
000020 7a 92 dd 3e a8 45 21 3e 26 0a 09 3f e5 94 a2 3e
       0.43275815 0.15749228 0.5353111 0.31754223
000030 46 15 58 3f 5a 18 5b 3d 3f 16 8e bf b0 70 92 3f
       0.8440746 0.05349002 -1.1100539 1.144064
000040 4a 2e 34 bf 34 61 51 be 5c 01 7a 3f 41 83 4b 3f
       -0.7038313 -0.20447236 0.97658324 0.7949715
000050 9c 82 bb bf df 0a d9 bf cb dd 9b bf b4 d4 9f bf
       -1.4649234 -1.6956443 -1.2177061 -1.2486787
000060 71 d1 b7 bf 62 e4 dd bf 8c 47 a6 bf 0c 0b a5 bf
       -1.4360791 -1.7335322 -1.2990584 -1.2893996
000070 eb dd bf bf a2 a6 b9 bf 31 6f 99 bf b3 f1 bd bf
       -1.4989599 -1.4503977 -1.1987058 -1.4839386
000080 ad 9b a4 bf 45 85 c5 bf c5 6a b6 bf 0e 78 ac bf
       -1.2860008 -1.5431296 -1.4251333 -1.3474138
000090 76 a5 b7 bf b1 7e af bf 99 8c b9 bf 75 0b a8 bf
       -1.434737 -1.3710538 -1.4496032 -1.3128496
0000a0 60 4a c7 3e 55 39 90 bf 6c 12 c5 3e b8 70 7c 3e
       0.3892393 -1.1267496 0.38490617 0.24652374
0000b0 0f af 9b 3e 22 86 a9 3e 16 6b 5a 3e b0 cf c0 3e
       0.30406997 0.33110148 0.21329913 0.37658453
0000c0 bb 38 2a 3e d2 db c4 bf 31 90 3b bf 69 2b 12 3f
       0.16623203 -1.5379584 -0.73266894 0.5709749
0000d0 80 36 d6 be 80 6e 3f bc 5a 0d 90 bc 75 98 0c c0
       -0.41838455 -0.01168406 -0.017584492 -2.1968052
0000e0 49 7f 30 3f 33 6e b6 3d 59 9f 39 be 01 81 fe 3e
       0.6894422 0.089077376 -0.18127193 0.49707797
0000f0 1c 91 a5 bd 12 f7 61 bd aa 3c f1 be 4a 98 90 bf
       -0.08084318 -0.055167265 -0.47116596 -1.1296475
000100 43 ff 57 bf 15 95 7d bd b8 5b 2c bf ae 59 07 c0
       -0.84373873 -0.061909754 -0.6732745 -2.1148486
000110 c5 81 36 bd 84 08 a5 3b e8 a1 55 c0 1e ec 91 3c
       -0.04455735 0.0050364155 -3.338007 0.017812785
000120 09 2d 71 bf 96 fc 23 bd 99 f1 76 3c e0 1a b5 be
       -0.94209343 -0.040035807 0.01507225 -0.35372066
000130 09 6d a2 bf c2 43 83 bf 19 71 e3 bd 43 87 b4 bf
       -1.2689525 -1.0255053 -0.11105556 -1.4103779
000140 d1 9b 29 3d d1 ed 02 3e f9 4a 7b bd fa f2 00 c0
       0.041408364 0.12786032 -0.061350796 -2.01483
000150 da c2 31 3e 9d e5 24 3d 86 91 b2 bf 6c 3e 49 be
       0.17359486 0.04025804 -1.395066 -0.19652718
000160 85 29 4f c0 5a 6c 20 bf 20 91 98 3e b4 c2 d4 be
       -3.2369092 -0.6266533 0.29798222 -0.41554797
000170 f0 25 29 be f4 df ed be 41 37 93 be e2 85 98 be
       -0.16518378 -0.46459925 -0.28753093 -0.29789644
000180 99 0c 81 3e 7d b6 42 be 56 27 a0 3e 69 a2 82 3e
       0.25204924 -0.19014926 0.3128001 0.25514534
000190 70 9e 49 bf 25 44 10 3e 7a 8b 74 3e 61 06 63 3e
       -0.7875738 0.14088495 0.23881331 0.22170402
0001a0 15 3b 9d bf 0f 06 5a bd 6e 6c 8c bf 01 bc 65 3e
       -1.2283655 -0.053228434 -1.097059 0.22434999
0001b0 20 ea 04 bf 49 51 a8 bd 6e ce 24 3e e0 ca 13 bf
       -0.51919746 -0.08218629 0.16094372 -0.5773144
0001c0 6a 9f 11 bd 3a ff a6 bf 03 02 2c 3e bb 5c 59 bf
       -0.03555242 -1.3046639 0.16797642 -0.8490712
0001d0 5e e4 cb be a4 43 5f 3d 98 30 1d 3e f5 a6 76 bc
       -0.39822668 0.054507867 0.15350568 -0.015054454
0001e0 08 09 46 c0 0f 75 9b bf 95 90 b8 bd fe e0 9e bb
       -3.0943012 -1.2145098 -0.09011952 -0.0048485985
0001f0 19 36 16 bd 2e fc 26 bf 3b 7d 2b be c7 60 3c bd
       -0.036672685 -0.65228546 -0.1674699 -0.04599073
000200 4c f7 fd bf af 93 87 bf 3b de e2 be 5e c3 78 bd
       -1.9841094 -1.0591944 -0.44310173 -0.06073319
000210 13 71 3d 3d 1c 76 27 c0 4f d3 30 be 55 65 b8 3d
       0.046250414 -2.6165838 -0.17268108 0.090037026
000220 ac 37 fa 38 1c d6 6e 3b 69 84 49 bd 12 d7 01 3c
       0.00011931299 0.0036443537 -0.04919854 0.007924812
000230 e0 99 42 be 8f de b9 3d 03 bd 86 3e 68 cf 27 3d
       -0.19004011 0.09075653 0.2631608 0.040969282
000240 22 7a f5 bd ad 2b 37 be 52 93 a0 bf 82 54 d7 3c
       -0.119861856 -0.17887755 -1.2544959 0.026285414
000250 ee 2f 0c bf a2 0b 1e c0 b6 4d 42 bf 54 67 06 c0
       -0.54760635 -2.46946 -0.7589983 -2.1000566
000260 79 70 ca bc bc d2 ac bf ac 69 4e bf 95 86 4c 3e
       -0.024711834 -1.3501811 -0.8062999 0.19973214
000270 ed ed f2 3d 4e 2b 82 3e 1d 21 8b 3e 9c de d9 3d
       0.11861787 0.25423664 0.271737 0.106381625
000280 a2 62 b6 bd 4f 63 8f be 6d 55 e8 be 02 65 52 bb
       -0.089055315 -0.28005454 -0.45377675 -0.0032103662
000290 b8 21 e9 bd d8 90 4a be 36 bc 37 c0 da 57 4f bf
       -0.113833845 -0.19781816 -2.8708625 -0.80993426
0002a0 2d 9a 87 bf f8 a8 a0 bc d1 f3 0b bd e2 0e ed be
       -1.0593926 -0.01961182 -0.03416807 -0.46300417
0002b0 94 e8 c6 3c 47 21 06 c0 64 ee 71 be f0 b8 dc be
       0.024280824 -2.095781 -0.23626095 -0.43109846
0002c0 43 ed 9c bd 09 93 92 bd 7c 3b b8 bc ed 3d 0b bf
       -0.076624416 -0.07156951 -0.022489302 -0.54391366
0002d0 f5 c6 b5 3d 3d 56 43 3e 15 da 1c 3e 65 92 52 c0
       0.08875839 0.19075866 0.15317567 -3.2901852
0002e0 84 6b 46 3e 7b ec 2b 3e c3 1a f2 ba 6a 09 6d 3e
       0.19376951 0.16789429 -0.001847111 0.23148122
0002f0 4c 29 ee bf 7f 0a 84 3e 8c 9f 59 c0 a5 7b 74 c0
       -1.8606353 0.25789258 -3.400363 -3.8200467
000300 d9 13 9a 3e 98 90 3b 3e 21 ff 4f c0 da 9b a1 3e
       0.30093268 0.18316877 -3.2499468 0.31564218
000310 00 27 61 3e 17 03 b0 c0 31 9a 48 3e 9e 4d 65 3e
       0.21987534 -5.500377 0.1959007 0.2239289
000320 f3 ae 51 bf ed e9 87 bf 69 20 43 bd 27 bd 97 bf
       -0.81907576 -1.0618263 -0.04763833 -1.18546
000330 1e ec e7 bd e4 c2 f8 bd a4 de 52 bd 20 81 21 bf
       -0.11324333 -0.121465474 -0.051481858 -0.63087654
000340 e1 fc af bc 22 36 bd bf fd b5 3b bd 11 91 06 be
       -0.021482887 -1.4782145 -0.045827854 -0.13141276
000350 d8 9f a9 bf 11 2c 8d bd 4f f8 dd bc ac ce f0 bf
       -1.3251905 -0.068931706 -0.027095942 -1.8813071
000360 62 ea 10 be 6e e0 84 bf 1c 91 7d be ca 47 95 be
       -0.1415191 -1.038099 -0.24762386 -0.29156333
000370 83 4c 3f bf 0d d9 8c be 09 7d 82 c0 c8 b9 45 bc
       -0.7472612 -0.27509347 -4.077763 -0.0120682195
000380 e7 ca 56 be a3 97 95 bd 6a ce 83 b9 61 87 03 bf
       -0.20975839 -0.07304313 -0.00025140058 -0.51378447
000390 4e 3c 5c c0 06 3e d5 3a f3 6e a1 bd c9 9e 10 bf
       -3.4411807 0.0016269095 -0.0788249 -0.56492287
0003a0 6a 78 39 be ef 72 10 bf 92 4f 87 be e8 e8 6a bd
       -0.1811234 -0.56425375 -0.26427895 -0.057351023
0003b0 83 04 5c be db 04 4f bf 27 ae 32 bd 25 b9 83 bc
       -0.21486096 -0.80866784 -0.043623116 -0.016079495
0003c0 09 50 57 c0 9d d4 ec bf c6 c9 d3 bd 74 fb 95 be
       -3.36426 -1.8502384 -0.103412196 -0.29293406
0003d0 b8 fa 15 be 41 68 58 be 36 e5 a9 be 04 0e 03 bf
       -0.14646423 -0.2113352 -0.33182687 -0.5119326
0003e0 64 4e 89 bd 30 ea 14 bf 5d 25 b9 bf 6d f0 27 bf
       -0.06704405 -0.5816984 -1.4464527 -0.65601236
0003f0 71 ff a8 bc 74 9f b6 bc e7 d0 41 3c 4f b5 0f be
       -0.020629616 -0.02229283 0.011829591 -0.14034007

fc2.bias f4 [1929]
000000 90 30 1f be b0 a8 13 c0 24 01 89 bd 58 1e a2 bd
       -0.15545869 -2.3071709 -0.06689671 -0.07915944
000010 80 34 96 bc 62 34 7e be 8a 22 f9 bd 83 f9 09 be
       -0.01833558 -0.2482467 -0.12164791 -0.13474087
000020 17 5e 66 be 69 80 0a 3e f1 ba 62 be 61 78 4e be
       -0.2249683 0.13525547 -0.22141625 -0.20163108
000030 e1 30 1c be e1 52 ac bc 96 50 32 be b0 3c 57 be
       -0.15253021 -0.021035613 -0.17413554 -0.21019244
000040 d8 d6 75 bd d1 c6 bf bd 88 be 39 be 83 ce 14 be
       -0.060019344 -0.09364093 -0.18139088 -0.14531903
000050 ba f7 33 be f9 ac 69 be e3 ba 48 be 05 6b 9f bc
       -0.17574969 -0.2281989 -0.19602542 -0.01946021
000060 33 81 52 be 1e b0 44 be ad 69 8b be de 4a 1b be
       -0.20557098 -0.19207808 -0.27229062 -0.15165278
000070 86 1d e7 3c b6 15 84 bd f2 1b 46 be 06 a5 9b bc
       0.02821232 -0.064494535 -0.19346598 -0.018999588
000080 ba 8c 36 be 18 6b 6b bd df 67 62 bd d2 f1 2b be
       -0.1782712 -0.05747518 -0.05527484 -0.16791466
000090 99 27 b7 3b 5b 30 02 3e 14 fe 12 bd 2e e7 2e 3e
       0.005589437 0.12713759 -0.03588684 0.17080376
0000a0 5d 63 14 be 3a 82 9e bd fb 7a 3f bd d4 10 1b 3d
       -0.14491029 -0.077396825 -0.046748143 0.037857845
0000b0 00 76 d7 bd 44 05 1d 3c f1 1e 45 3e cb 18 21 be
       -0.105205536 0.009583775 0.19250084 -0.15732114
0000c0 52 3e 34 3e 6a eb 9c be cf ee 28 be b3 15 37 bd
       0.17601898 -0.30648357 -0.16497348 -0.04469843
0000d0 d8 26 55 be 6e 9e 1c be 87 1a e6 bd af f4 23 be
       -0.20815599 -0.15294811 -0.112355284 -0.16011308
0000e0 fa b8 2b be bd da 2c be ad 46 66 be 79 56 77 bb
       -0.16769782 -0.16880317 -0.22487898 -0.003774075
0000f0 2a 67 1e 3d da 52 1d 3d 14 a3 f9 bd 84 53 0f be
       0.038672604 0.03840909 -0.12189308 -0.13996702
000100 fa ab 17 be 6e d0 00 be ca fc 2c be 58 62 0b be
       -0.14811698 -0.1257951 -0.16893306 -0.13611734
000110 61 2e 51 3d f6 f6 35 be dc a3 5d 3d 71 64 8d be
       0.05106962 -0.1776999 0.054111347 -0.27615693
000120 25 0d fb bd dd db 3a 3d 08 c9 fa bc 0c cb ee bd
       -0.122583665 0.045619834 -0.030613437 -0.11659822
000130 17 0f 6b be bd 5c 56 be 6c 07 0f bd 53 c2 6e be
       -0.22954975 -0.20933814 -0.034919187 -0.23316316
000140 c8 48 4f be 18 5e 93 3d f5 d3 63 be 22 4b 83 bc
       -0.20242608 0.07195681 -0.22248824 -0.016027037
000150 fb d1 66 be 72 4a 67 be 44 ba 56 be 65 a0 66 3e
       -0.22541039 -0.22586992 -0.20969492 0.22522123
000160 42 6e 41 3d 71 18 bd bd e2 aa 19 be b6 59 45 be
       0.04722429 -0.092331775 -0.15006593 -0.19272503
000170 c7 dc 13 3d d0 da 13 bc 50 68 6a be 04 a8 63 be
       0.03609922 -0.009024337 -0.22891355 -0.22232062
000180 c6 2f 84 be d4 00 a7 bd 9b ca 45 be 4f 99 9f bd
       -0.25817698 -0.08154455 -0.19315569 -0.07792913
000190 82 d8 a3 bd 24 3e b5 bd 09 74 34 bd d0 09 82 3e
       -0.0800028 -0.08849743 -0.044055972 0.2539811
0001a0 73 fe d5 bd fa 45 30 bd 2c 08 32 bd ad ba 15 be
       -0.10448923 -0.043035485 -0.043464825 -0.14621992
0001b0 89 d6 ac bd 24 6c 10 be 02 5d 0a be c4 29 65 be
       -0.08439357 -0.14103752 -0.13512042 -0.22379214
0001c0 27 5d 44 bd aa aa 65 bd ae 79 ab bd f3 17 89 be
       -0.0479404 -0.05607096 -0.08372818 -0.26776084
0001d0 7c 70 a6 3d cc db ae 3d 36 44 1b bd 64 7d b1 bb
       0.081269234 0.08538017 -0.037906848 -0.005416559
0001e0 0c de 1b be b9 31 c1 3d 8d 8e 4a be 68 be 08 bd
       -0.15221423 0.09433312 -0.19780941 -0.03338471
0001f0 24 c3 30 be 14 8a 8d be 51 4c 19 be d6 78 1d be
       -0.1726194 -0.27644408 -0.14970519 -0.15378127
000200 5c 7c 1a be 6e 75 9e 3b 27 c9 73 bd 32 75 33 be
       -0.15086502 0.004835776 -0.059518006 -0.17525175
000210 75 35 35 be e6 5a ac bd e7 87 0c be c6 d8 8c 3c
       -0.17696173 -0.08415775 -0.13723718 0.01719321
000220 34 94 35 be 3a ce 58 bd 9b f2 87 3d f2 be b4 bd
       -0.17732316 -0.052931048 0.0663807 -0.088254824
000230 a6 1b 01 be 04 c5 11 be 73 9c 1a bc e4 f2 20 be
       -0.12608203 -0.14235312 -0.009436714 -0.15717655
000240 ff 47 7b be 26 da 43 be bf 77 86 be 97 8c 1f be
       -0.24539183 -0.19126186 -0.26263234 -0.15580975
000250 42 b6 0a be 75 fd 5b be d2 57 1a be 06 cf f2 3c
       -0.13546088 -0.21483405 -0.15072563 0.029639732
000260 db ce 61 39 16 0f 54 be 5d 94 82 3c 56 ae 13 be
       0.00021534732 -0.2070888 0.015939886 -0.14421973
000270 98 e2 f4 bd 0a ee 27 be 43 aa 13 bd da 7b b6 3d
       -0.11957282 -0.16399398 -0.036051046 0.089103416
000280 75 52 00 be 0d a1 26 be 36 ce 68 3e ff 6f 0e be
       -0.12531455 -0.16272373 0.22734913 -0.1390991
000290 4f 1b 48 3d c0 fe aa bb 6e df 84 3d 34 ac 05 3e
       0.04885417 -0.005218357 0.06487928 0.13053972
0002a0 49 72 71 bc 70 15 c8 bd 1a d0 f9 3d b6 dd bc 3d
       -0.01473672 -0.09769714 0.12197895 0.092219755
0002b0 9d c7 80 bd 55 46 63 be 7b 05 f6 bd 06 b6 d8 bd
       -0.06288073 -0.22194798 -0.12012764 -0.10581593
0002c0 80 1b fa bd 1f 6d 0c be f3 0f 84 be c0 14 3e be
       -0.122122765 -0.13713501 -0.25793418 -0.18562603
0002d0 f2 b7 19 bd e5 51 01 bd 73 62 48 be 3f 39 89 3d
       -0.03752894 -0.03157224 -0.19568805 0.06700372
0002e0 e9 42 ea bc 05 58 35 be 69 33 0c be 0b 5a d3 bd
       -0.028596358 -0.17709358 -0.13691486 -0.10319909
0002f0 b9 66 c6 bc 88 31 77 be 45 e0 2e 3e 3a da 81 be
       -0.024218904 -0.24139988 0.1707774 -0.25361806
000300 4f c9 2c be 8e 8f 31 be 12 88 aa bd 5d 62 99 3d
       -0.16873668 -0.17339918 -0.083267346 0.074894644
000310 4e 97 d6 bd 53 0e 11 be cc ca 00 bd ef 7a 50 be
       -0.10478078 -0.1416562 -0.031443402 -0.20359395
000320 70 89 a3 bd c4 d8 83 3e a4 71 41 bd 68 60 1e be
       -0.079851985 0.25751317 -0.047227517 -0.15466464
000330 65 e2 43 be 08 56 0a be fb 4a cf bd 4c 58 a5 bd
       -0.19129331 -0.13509381 -0.10121723 -0.08073482
000340 7a 9f 4e bd d9 e0 16 3e b9 a4 72 be d7 f3 78 be
       -0.050445057 0.1473421 -0.23695649 -0.24311768
000350 c5 5e 2d be 81 60 fa bd 5a 62 ab bd 98 08 9a bd
       -0.16930683 -0.12225438 -0.083683684 -0.075211704
000360 cd 06 6d be 3f 50 fd bd 65 cd 60 be 1e c5 88 bd
       -0.23147126 -0.12368821 -0.21953352 -0.06678222
000370 48 0a f0 bd 06 29 57 be 2d 9d 6c 3c 20 d1 00 3e
       -0.11720711 -0.21011743 0.0144417705 0.12579775
000380 c1 24 f2 bd 6c f1 ad bd 3d 55 7a be ec 4e 9b 3d
       -0.118234165 -0.08493313 -0.24446578 0.075834125
000390 c6 a4 35 bd b6 15 2d 3e 75 d8 90 bb d6 eb 44 be
       -0.044346593 0.16902813 -0.004420335 -0.1923059
0003a0 e4 3d 40 be 92 ec 38 bc 19 42 18 be 21 99 35 be
       -0.1877361 -0.0112868715 -0.14868964 -0.17734195
0003b0 56 57 40 be 39 32 91 bd 0a 9e 41 be 22 20 33 be
       -0.18783316 -0.07089657 -0.18907943 -0.17492726
0003c0 b2 30 93 3d 15 db 0c be 08 99 75 be ce 8b 09 be
       0.07187022 -0.13755448 -0.23984158 -0.13432238
0003d0 43 bb 81 be a3 4b 30 be 84 7a 1c be bf 26 9d bd
       -0.25338182 -0.17216353 -0.15281111 -0.07673406
0003e0 5f 19 cd 3d d8 13 78 bd 82 b0 02 3f ec 57 e6 bd
       0.10014605 -0.0605658 0.5105058 -0.112472385
0003f0 81 dd 04 3d d3 03 36 be 25 be 0f be a3 b9 11 3d
       0.032437805 -0.17774896 -0.14037378 0.035577428
