weights/150_epochs_clipped_weights.pth (torch, 370656 bytes, 5 tensors)

embed.weight f4 [2227, 20]
0.00023840505 3.5335455e-05 -2.0151041e-05 -0.00068089797 0.0008641297 -1.3544237e-05 -0.00018014558 0.00018651172
1.0444014e-05 -0.00016376452 -0.0002213009 -0.0006914277 -8.0595775e-05 0.0002961615 -3.0221589e-05 0.0003382954
-0.0009152826 0.0005797343 -0.0007780881 0.00052502926 -0.58074415 -0.19042109 -0.3010637 0.065191716
0.024620479 0.8360075 -0.10942172 -0.03709966 0.3980275 0.14965723 -0.06148962 0.3071766
-0.340466 -1.4243176 -0.06962163 -0.051350698 -0.0046122903 -0.0017965124 0.022147985 0.32180944
0.11357163 -0.17623045 0.1178668 -0.42024073 -0.37977612 -0.21015571 -0.2878736 -0.24259995
0.15911317 0.15174435 -0.34025532 0.56422794 0.25013334 0.07371306 0.100024715 -0.68912035
0.14728999 0.36023796 0.11544014 1.1023022 -0.52370214 -0.5056084 -0.4718112 0.5162654
-0.42734244 -0.09235348 0.3696489 -0.5237927 -0.071753554 0.333783 0.4604432 0.08676554
-0.27876744 -0.1510497 0.33492848 -0.30601496 -0.2679403 -0.5222463 0.4254608 -0.32159504
-0.27019718 0.12971447 -0.35417482 0.2532126 -0.66495204 -0.09210614 0.167925 -0.40111715
-0.4279667 0.5762866 0.23828405 -0.026805464 -0.25317106 0.52779055 0.31959864 -0.107182294
-0.17076643 -0.3608756 0.69990295 -0.24533638 0.16594942 -0.33424723 0.22185796 -0.12316593
-0.18984899 -0.34777585 0.39915094 0.103161946 0.29583436 -0.3965046 -0.048172045 0.4662957
-0.06920036 -0.05159513 0.4072828 -0.26780453 -0.31559783 0.112027526 -0.2952174 -0.16389143
-0.12723671 0.46949607 -0.5082281 0.5213119 0.52233315 0.47972316 0.4294367 0.1310909
0.27213594 -0.5199546 -0.49981165 0.0451196 -0.5111759 0.30625722 -0.5196101 -0.4875625
-0.500762 0.516735 0.51452476 0.33715746 -0.26011842 -0.118195355 -0.0851162 0.21038498
0.1863983 -0.04373 0.289106 -0.015936363 0.2825422 -0.046580568 -0.15838397 0.2610807
0.3269288 -0.12325948 0.08602214 -0.10297555 -0.3095731 0.11666746 -0.5347799 -0.16970076
-0.041613694 -0.44659692 -0.5496826 -0.2523572 -0.36771 -0.7225285 0.26011357 0.034178555
0.45123333 0.3872492 0.20510143 0.03782956 0.025412874 -0.40446278 0.010044715 -0.2247225
0.058412384 0.41251123 -0.44736257 0.3817262 0.5181157 0.47333735 -0.06197136 0.30537203
-0.48907533 -0.13374783 0.14511241 -0.052318588 0.38149333 0.53476435 0.06761759 -0.2694112
0.24995346 0.25720605 0.18418764 -0.44447887 0.44024718 -0.020538291 -0.19950643 -0.3296287
-0.50494564 -0.20925641 0.09560344 0.4911336 0.3266754 0.45303532 -0.018231194 0.4872771
0.49743775 -0.48646915 0.375307 -0.3355741 -0.48369974 -0.4226402 0.29864505 0.4940089
0.117177956 0.50409234 0.48072213 -0.50824064 0.13454317 0.07583915 -0.47719088 0.30622903
-0.3530892 0.03547639 0.05266623 -0.34583184 -0.38324785 -0.51690763 0.4710902 -0.4970077
-0.52682775 -0.16393216 -0.33403093 0.29783738 -0.038743775 -0.51948357 -0.25581536 0.14682195
-0.23136605 0.41936818 -0.31444043 -0.04169523 0.11523782 -0.21481241 0.5623024 0.6356262
0.012518334 0.50817335 0.20242381 -0.061735373 0.09781883 0.13072053 0.18518277 0.11878365
00000000: 5efc 7939 2835 1438 080a a9b7 4a7e 32ba
00000010: c386 623a 0e3c 63b7 76e5 3cb9 5c92 4339
00000020: b338 2f37 34b8 2bb9 020d 68b9 ed40 35ba
00000030: 8705 a9b8 2046 9b39 5e84 fdb7 3d5d b139
00000040: 93ef 6fba 4ff9 173a 9cf8 4bba 1ea2 093a
00000050: a6ab 14bf bffd 42be 0525 9abe 3c83 853d
00000060: e3b0 c93c 9604 563f 7f18 e0bd d0f5 17bd
00000070: 43ca cb3e bf3f 193e 8adc 7bbd 4046 9d3e
00000080: 8f51 aebe 0a50 b6bf c995 8ebd 1c55 52bd
00000090: b222 97bb f478 ebba b16f b53c 35c4 a43e
000000a0: 3e98 e83d c175 34be 2664 f13d cb29 d7be
000000b0: 0472 c2be 0f33 57be 2b64 93be 1f6c 78be
000000c0: 90ee 223e df62 1b3e f235 aebe 3e71 103f
000000d0: 7a11 803e dff6 963d c2d9 cc3d 316a 30bf
000000e0: 30d3 163e 1c71 b83e e16b ec3d 3d18 8d3f
000000f0: 5811 06bf 8d6f 01bf 3d91 f1be f829 043f
00000100: a1cc dabe d223 bdbd 9f42 bd3e 4717 06bf
00000110: 87f3 92bd 9be5 aa3e 36bf eb3e 22b2 b13d
00000120: 9bba 8ebe c6ac 1abe bf7b ab3e fead 9cbe
00000130: 792f 89be efb1 05bf ffd5 d93e 1ba8 a4be
00000140: 4957 8abe dfd3 043e 6756 b5be 15a5 813e
00000150: 4c3a 2abf 25a2 bcbd 88f4 2b3e 3a5f cdbe
00000160: 741e dbbe 8587 133f bc00 743e 2297 dbbc
00000170: a39f 81be 481d 073f 6fa2 a33e 6482 dbbd
00000180: 65dd 2ebe b0c4 b8be d72c 333f 7639 7bbe
00000190: a5ee 293e 7422 abbe bc2e 633e 6b3e fcbd
000001a0: c667 42be ad0f b2be 835d cc3e 9246 d33d
000001b0: 9a77 973e a702 cbbe 0d50 45bd 4fbe ee3e
000001c0: ebb8 8dbd 6a55 53bd 5f87 d03e ad1d 89be
000001d0: 0a96 a1be b06e e53d bc26 97be 28d3 27be
000001e0: 574a 02be ca61 f03e 3d1b 02bf b274 053f
000001f0: a0b7 053f 469e f53e 21df db3e b13c 063e
00000200: 6755 8b3e bf1b 05bf 50e7 ffbe 54cf 383d
00000210: 6cdc 02bf bfcd 9c3e 2b05 05bf cba1 f9be
00000220: f031 00bf bf48 043f e5b7 033f e79f ac3e
00000230: 3e2e 85be 6810 f2bd 6751 aebd 296f 573e
00000240: 32df 3e3e 3a1e 33bd b405 943e fa8c 82bc
00000250: 5fa9 903e 44cb 3ebd 682f 22be 5fac 853e
00000260: 3663 a73e 776f fcbd 602c b03d d8e4 d2bd
00000270: 5e80 9ebe 59ef ee3d 56e7 08bf 09c6 2dbe
00000280: 1f73 2abd 5aa8 e4be 00b8 0cbf f734 81be
00000290: 7c44 bcbe a1f7 38bf 9b2d 853e d0fe 0b3d
000002a0: 0e08 e73e 8745 c63e 1c06 523e 2bf3 1a3d
000002b0: a92e d03c bf15 cfbe 9792 243c a81d 66be
000002c0: d341 6f3d ac34 d33e b50c e5be 9e71 c33e
000002d0: 3ba3 043f 4659 f23e aed5 7dbd b959 9c3e
000002e0: 1568 fabe 31f5 08be 5998 143e 044c 56bd
000002f0: 1853 c33e 51e6 083f 177b 8a3d 44f0 89be
00000300: cdf3 7f3e 83b0 833e af9b 3c3e bc92 e3be
00000310: 1468 e13e eb3f a8bc 6a4b 4cbe 18c5 a8be
00000320: 1e44 01bf 5047 56be bdcb c33d dd75 fb3e
00000330: ff41 a73e 3ff4 e73e 9659 95bc 627c f93e
00000340: 29b0 fe3e 7c12 f9be 3d28 c03e 5ed0 abbe
00000350: 7ea7 f7be 4c64 d8be 01e8 983e bcee fc3e
00000360: fffa ef3d 320c 013f 3621 f63e 0f1c 02bf
00000370: afc5 093e 8e51 9b3d 5d52 f4be 0dca 9c3e
00000380: 1cc8 b4be b14f 113d 8bb8 573d df10 b1be
00000390: 1039 c4be 0f54 04bf bc32 f13e cb77 febe
000003a0: 2fde 06bf d5dd 27be 1a06 abbe 247e 983e
000003b0: cbb1 1ebd e0fc 04bf 3bfa 82be 7e58 163e
000003c0: 39eb 6cbe 6db7 d63e 56fe a0be 9ec8 2abd
000003d0: ce01 ec3d c9f7 5bbe 0df3 0f3f 66b8 223f
000003e0: b319 4d3c a617 023f 3048 4f3e 3bde 7cbd
000003f0: 3d55 c83d 9adb 053e 8da0 3d3e d844 f33d

fc1.weight f4 [20, 40]
-1.6837786 2.2445767 1.0461454 1.3688407 0.39544863 1.3203435 1.0357463 -0.11893248
1.1539273 0.21590899 -3.830488 0.9925842 2.5048618 -0.9456356 2.1872547 0.83902436
-0.088302165 -1.2672029 2.3614225 -0.7815482 2.1347153 -0.20830958 -0.9786194 -0.5711425
-0.13902098 -0.4076062 0.17734751 0.12593193 0.123990744 0.537692 -0.46729866 0.09884949
0.14313863 0.059121557 0.021312747 0.11546828 -0.059792485 1.296769 0.44850034 0.1594813
1.1454704 1.2652543 1.8472787 0.024761146 0.7936045 1.0795498 -0.28371757 0.018089555
1.0057693 -0.99884516 -0.75933117 -1.4445664 0.287938 -1.9094245 -0.44809157 -5.295714
-0.78472435 -0.15942352 -3.663427 2.2422476 -0.21675788 0.2915769 -0.035345852 0.38416174
0.11747467 0.8004534 0.5778717 -0.13615644 -0.44372985 0.18613628 -0.20680025 0.117938
-0.34588197 -0.31484365 -0.62741524 0.90613806 -0.60988605 0.20438384 0.40274116 -0.07504876
2.6952505 3.0336897 0.40694764 0.83655864 -0.37938708 0.44300503 -1.027425 0.8923884
-2.2262044 0.42938358 3.0001462 -1.6526672 -0.06272939 0.6545982 -2.829673 1.2973559
-1.895075 2.5785193 0.901369 -1.9267114 -0.09245498 -0.18980451 0.6772296 0.4126422
0.12039847 -0.49567595 0.13620766 0.61713314 -0.23246282 0.19210266 -0.31032306 -0.31699476
0.4832575 0.4149009 -0.34100935 -0.08436194 0.027906314 0.5541608 0.4999211 0.03951957
-0.12856159 -2.552197 -0.18235435 -2.3219304 -0.19055122 0.23405328 2.2090201 -2.0441647
-0.9604071 -2.002086 1.8490291 -0.91065806 -0.90615606 -0.11457664 -0.14230022 0.40133965
-0.7189371 0.8134748 1.7006133 3.4232764 -0.68863374 0.08054206 -0.44553414 0.7253249
0.6821347 1.2348773 0.45499566 0.18021522 -0.06655932 -0.063636996 0.3727722 0.47730345
-0.45173162 0.18854521 0.5174922 0.80311316 -0.09103447 -0.8298152 -0.8020255 0.0036051783
-0.9000555 -0.7456215 -1.573802 0.6877102 -1.3941379 -2.0626702 -3.8538194 0.13950315
3.3101523 -1.0344745 1.2944918 -0.5308567 0.08548303 -0.7539369 0.6625177 -1.4627118
-1.6254213 0.33893 2.9960058 0.70699644 -0.28501183 0.52873653 -0.18185382 0.0016450444
1.1775517 -0.17437024 -0.23836495 0.69468 -0.8139507 -0.37331638 0.37539846 0.09535019
-0.32505095 -0.67300045 0.28441954 0.86079 0.37085977 -0.7518557 0.49447888 0.3097867
0.5442294 0.044313997 0.5346754 1.017662 1.8946625 -2.4654841 2.7821374 -0.13265064
3.2759342 1.1426122 1.8686413 0.47182888 -3.3764398 -1.5733765 -0.7437948 1.1094352
1.2294633 -1.0309479 -1.0975147 0.23330837 0.48072466 -0.110465035 -1.2218871 -0.12796633
-0.12801889 1.4831437 -0.11609085 -0.15924565 -0.6093153 0.4168645 -0.14272949 1.3947809
-0.63097346 0.33715856 -0.01757687 0.8154452 -0.110380135 -0.4263724 -0.110085584 0.24942178
-0.4816503 -1.1520694 2.805414 0.46330518 -0.81935906 2.0774333 -0.5841227 0.25151592
-0.5956558 -0.8498251 -0.92065763 1.4254951 -4.660799 0.1594516 0.087550715 0.7646697
00000000: 0f86 d7bf 25a7 0f40 18e8 853f 2c36 af3f
00000010: 3e78 ca3e 0401 a93f 5693 843f df92 f3bd
00000020: e4b3 933f 3f17 5d3e b726 75c0 001a 7e3f
00000030: a84f 2040 2d15 72bf fbfb 0b40 4dca 563f
00000040: c4d7 b4bd b433 a2bf 8c21 1740 8b13 48bf
00000050: 2d9f 0840 1b4f 55be cd86 7abf 6536 12bf
00000060: 845b 0ebe c3b1 d0be 969a 353e 4df4 003e
00000070: dcee fd3d 2fa6 093f c541 efbe 9a71 ca3d
00000080: ef92 123e 7229 723d 1298 ae3c a27a ec3d
00000090: f7e8 74bd 87fc a53f d6a1 e53e 114f 233e
000000a0: c69e 923f daf3 a13f a173 ec3f e3d7 ca3c
000000b0: aa29 4b3f b02e 8a3f 6e43 91be 8c30 943c
000000c0: 0cbd 803f 51b4 7fbf 8763 42bf 8de7 b8bf
000000d0: 9c6c 933e 0668 f4bf 426c e5be 7d76 a9c0
000000e0: b2e3 48bf eb3f 23be 9775 6ac0 fc80 0f40
000000f0: c7f5 5dbe 9149 953e d0c6 10bd d9b0 c43e
00000100: 8f96 f03d 84ea 4c3f 66ef 133f 986c 0bbe
00000110: 8f30 e3be 829a 3e3e 72c3 53be 7a89 f13d
00000120: 7117 b1be 3033 a1be 499e 20bf aaf8 673f
00000130: 7e21 1cbf ff49 513e 1734 ce3e 2ab3 99bd
00000140: fc7e 2c40 f927 4240 715b d03e b528 563f
00000150: 063f c2be 8ed1 e23e aa82 83bf 9173 643f
00000160: 227a 0ec0 2ad8 db3e 6502 4040 998a d3bf
00000170: 4478 80bd bf93 273f 5d19 35c0 c20f a63f
00000180: d191 f2bf 7606 2540 1ec0 663f 7b9e f6bf
00000190: 0959 bdbd 1d5c 42be eb5e 2d3f d745 d33e
000001a0: 7993 f63d 3dc9 fdbe 057a 0b3e 70fc 1d3f
000001b0: bc0a 6ebe 8fb6 443e aae2 9ebe 234d a2be
000001c0: 876d f73e e46d d43e c798 aebe f4c5 acbd
000001d0: c89b e43c 7bdd 0d3f a9f5 ff3e 46df 213d
000001e0: a6a5 03be 3257 23c0 19bb 3abe 829a 14c0
000001f0: dc1f 43be aaab 6f3e 9660 0d40 98d3 02c0
00000200: 3ddd 75bf 2d22 00c0 fcac ec3f e320 69bf
00000210: d8f9 67bf 28a7 eabd 26b7 11be 647c cd3e
00000220: 430c 38bf e23f 503f b2ad d93f f616 5b40
00000230: 4d4a 30bf 3cf3 a43d 0d1d e4be e5ae 393f
00000240: 61a0 2e3f 7610 9e3f 31f5 e83e 578a 383e
00000250: 4150 88bd 1d54 82bd ffdb be3e 1e61 f43e
00000260: 5e49 e7be ff11 413e 5e7a 043f d398 4d3f
00000270: 4870 babd c56e 54bf 8b51 4dbf db44 6c3b
00000280: 0a6a 66bf 0de1 3ebf 5872 c9bf c70d 303f
00000290: 1c73 b2bf ca02 04c0 faa4 76c0 ead9 0e3e
000002a0: 89d9 5340 a969 84bf e8b1 a53f 3ae6 07bf
000002b0: ba11 af3d 0202 41bf c39a 293f 243a bbbf
000002c0: ce0d d0bf 3c88 ad3e 8fbe 3f40 b8fd 343f
000002d0: 12ed 91be 475b 073f e337 3abe 889e d73a
000002e0: 04ba 963f 1d8e 32be f115 74be 8cd6 313f
000002f0: 135f 50bf 5323 bfbe 3a34 c03e f646 c33d
00000300: 146d a6be c249 2cbf 709f 913e bc5c 5c3f
00000310: 55e1 bd3e 9d79 40bf 562c fd3e 5d9c 9e3e
00000320: 9e52 0b3f 9882 353d 7de0 083f c042 823f
00000330: 4d84 f23f 7eca 1dc0 8a0e 3240 92d5 07be
00000340: e8a8 5140 1e41 923f a32f ef3f 8e93 f13e
00000350: 9717 58c0 6764 c9bf 5669 3ebf f901 8e3f
00000360: 0e5f 9d3f 1af6 83bf 5d7b 8cbf 64e8 6e3e
00000370: 8b21 f63e 7e3b e2bd cc66 9cbf 9b09 03be
00000380: 6217 03be a7d7 bd3f 0ac1 edbd 4b11 23be
00000390: 16fc 1bbf 446f d53e ae27 12be 2e88 b23f
000003a0: 7a87 21bf 0ca0 ac3e 5efd 8fbc 04c1 503f
000003b0: fb0e e2bd 7c4d dabe 8d74 e1bd 6c68 7f3e
000003c0: de9a f6be 0377 93bf e78b 3340 5636 ed3e
000003d0: 84c1 51bf abf4 0440 1189 15bf b2c6 803e
000003e0: e67c 18bf 238e 59bf 38b0 6bbf a076 b63f
000003f0: 4425 95c0 4847 233e ca4d b33d 65c1 433f

fc1.bias f4 [20]
0.11944868 0.08206539 0.11321524 0.14821164 0.0784771 0.08868482 0.05450057 0.0751632
0.09944392 0.070933536 0.033851143 -0.011672882 0.08758911 0.11622483 0.121023424 0.07271382
0.08813189 0.14541976 -0.061893158 -0.0053276415
00000000: 82a1 f43d e611 a83d 64dd e73d cbc4 173e
00000010: 9ab8 a03d 63a0 b53d fd3b 5f3d 2aef 993d
00000020: 41a9 cb3d 9a45 913d 7fa7 0a3d 9e3f 3fbc
00000030: eb61 b33d 4907 ee3d 21db f73d fcea 943d
00000040: 7e7e b43d ebe8 143e ae83 7dbd 7f93 aebb

fc2.weight f4 [2227, 20]
0.18063259 0.26190773 -0.64786655 0.32037786 0.252515 0.29464164 0.2997217 0.42082536
0.28980443 -0.26669115 0.2841478 1.382684 0.15291567 0.20835313 0.24102567 0.48497576
0.072836496 0.13185428 0.6081749 -6.540132 -1.301838 -1.2540349 -1.2215048 -1.2931591
-1.2202314 -1.168305 -1.1206656 -1.2142799 -1.1920522 -1.2546241 -1.2075644 -1.106894
-1.113727 -1.1375262 -1.1840818 -1.1690155 -1.1728979 -1.210661 -1.1033176 -1.4413657
0.43350428 -0.24372974 -0.23697828 0.36903104 0.81327075 0.22543609 -1.3663307 0.16460767
0.028598042 -1.2905918 0.57071835 0.39548358 -0.36157614 0.8952295 0.58658916 -1.0276837
0.29088458 -1.287009 -0.99072796 0.0050162994 -0.07325019 -0.1833138 -0.09733742 -0.12361868
-1.1514885 -0.39173064 -3.06574 -0.18309365 -0.34640086 -0.11362025 -0.2075961 -6.4430614
-0.05900936 -0.61240894 -0.21103892 -2.656627 -0.10092763 -0.050994635 -0.09519907 -0.1289512
0.043288663 0.1576667 -1.9197547 -2.9536023 0.008997363 0.038405336 -0.18718806 -0.034377035
0.041693285 -0.16653551 0.20231509 0.16383928 -0.5387274 -2.67567 0.1187942 -0.48281175
-0.0816149 -0.27038124 -0.0998546 -0.0290965 -0.1003281 -0.22769476 -1.3826555 -0.13219342
-0.05221236 0.28825933 -0.11762511 -0.027269341 -1.8067261 -0.4226563 0.2837244 0.039627936
-1.4590707 -0.26706046 -0.7608019 0.0041465587 -0.03510424 0.14592806 0.11461601 -0.46113613
-0.16517822 -0.17574286 -1.1433809 -0.24155521 -0.1387086 -0.13547255 -0.07807123 -2.9697397
-0.31055626 -0.4055303 -0.34106144 -0.11789026 -0.07018059 -0.72158045 -0.1251833 -0.13909979
-1.9366059 -0.14236994 -0.086997725 -0.5826976 -0.66599417 -0.51194286 -1.7097678 -0.24100591
0.13699862 0.23187526 0.1501342 0.1167881 -0.57408965 -1.6072577 0.038137592 0.18886122
-0.67230284 -4.405187 0.23106144 0.042797085 -0.54978544 0.2932165 -0.19227351 -0.11328307
-0.1272005 0.0042267386 -0.57286507 -0.53134024 -5.5716395 -0.02911253 -0.22382498 -0.08177677
-0.59458435 -0.20465297 -0.0843561 -0.06044574 -0.9380835 -0.20925614 -2.262984 0.04374409
-0.063953266 -0.63991976 -0.14618121 -0.15615682 0.17951854 -2.2220745 0.21222658 -2.9246895
-2.4455113 0.25003323 -6.8443756 0.21728323 -0.26387104 0.2075591 -2.490328 0.20151228
-3.8890593 0.22979471 0.15460855 0.28777975 -0.8566096 0.22333121 0.23021704 0.19633289
-0.22311312 -0.28141636 -0.0984707 -3.82319 -0.11177482 -0.3016793 -0.893079 -0.40286782
-0.12831579 -0.5504837 -0.16843367 -2.272932 -0.06388265 -0.11601212 -0.7329008 -0.15006919
-0.5166594 -0.17195761 -0.7814577 -0.17058614 -0.15116686 -0.15842816 -2.388155 -0.013347844
-4.7279205 -0.047117487 0.021027653 0.015140397 0.0015724921 -0.10188616 -0.03798809 -0.56022537
-0.07347196 -0.02137781 -0.8696948 -1.5846161 -0.11313974 -0.5515765 -0.1195901 -0.5361818
-0.42398605 -0.115348525 -0.3250261 -0.6664044 -0.13521108 -0.028951919 -0.13980752 -0.20652604
-0.18239444 -0.8215446 -0.20605841 -2.962119 -0.28508663 -0.09012479 -0.11000301 -0.2507001
00000000: c0f7 383e c518 863e 95da 25bf 9108 a43e
00000010: a549 813e 45db 963e 1f75 993e 6c76 d73e
00000020: 3f61 943e be8b 88be d27b 913e cafb b03f
00000030: ed95 1c3e 865a 553e 6fcf 763e be4e f83e
00000040: 4d2b 953d cf04 073e 5ab1 1b3f c348 d1c0
00000050: a1a2 a6bf 3784 a0bf 455a 9cbf 3d86 a5bf
00000060: 8b30 9cbf 058b 95bf f871 8fbf 866d 9bbf
00000070: 2b95 98bf 8697 a0bf 7891 9abf b4ae 8dbf
00000080: 9b8e 8ebf 759a 91bf fe8f 97bf 4da2 95bf
00000090: 8521 96bf f1f6 9abf 8339 8dbf ac7e b8bf
000000a0: 46f4 dd3e 4a94 79be 6faa 72be a3f1 bc3e
000000b0: 8332 503f b8d8 663e ede3 aebf ea8e 283e
000000c0: 7146 ea3c 1d32 a5bf 991a 123f d37c ca3e
000000d0: 8220 b9be c32d 653f b52a 163f 248b 83bf
000000e0: d3ee 943e b6bc a4bf 59a0 7dbf c55f a43b
000000f0: 3204 96bd 9db6 3bbe d758 c7bd ca2b fdbd
00000100: fa63 93bf eb90 c8be 1635 44c0 e77c 3bbe
00000110: 745b b1be bcb1 e8bd 1294 54be 8f2d cec0
00000120: ccb3 71bd d5c6 1cbf 961a 58be 2d06 2ac0
00000130: 25b3 cebd c0df 50bd bbf7 c2bd c90b 04be
00000140: 744f 313d 6173 213e 86ba f5bf d207 3dc0
00000150: ad69 133c ea4e 1d3d 3aae 3fbe efce 0cbd
00000160: 94c6 2a3d 4988 2abe b02b 4f3e 7cc5 273e
00000170: 0aea 09bf 2d3e 2bc0 604a f33d 1a33 f7be
00000180: b625 a7bd 696f 8abe 9280 ccbd c85b eebc
00000190: d278 cdbd d128 69be dbfa b0bf b65d 07be
000001a0: a1dc 55bd ba96 933e 6fe5 f0bd f463 dfbc
000001b0: cd42 e7bf 6866 d8be 5344 913e e750 223d
000001c0: d4c2 babf 26bc 88be eac3 42bf dbdf 873b
000001d0: 77c9 0fbd 2a6e 153e ccbb ea3d 091a ecbe
000001e0: 7b24 29be f0f5 33be 4e5a 92bf 405a 77be
000001f0: a109 0ebe 51b9 0abe cfe3 9fbd 3710 3ec0
00000200: 3b01 9fbe aba1 cfbe 9b9f aebe 7370 f1bd
00000210: d7ba 8fbd 7fb9 38bf 0d30 00be 2d70 0ebe
00000220: b4e2 f7bf 6dc9 11be dd2b b2bd ab2b 15bf
00000230: 987e 2abf b00e 03bf acd9 dabf 41ca 76be
00000240: 5e49 0c3e b570 6d3e c8bc 193e 992e ef3d
00000250: 8af7 12bf 9fba cdbf 2a36 1c3d d664 413e
00000260: 0a1c 2cbf 4bf7 8cc0 5f9b 6c3e ff4b 2f3d
00000270: bdbe 0cbf 7920 963e 59e3 44be f400 e8bd
00000280: d940 02be 7480 8a3b 49a7 12bf ea05 08bf
00000290: df4a b2c0 677d eebc 6032 65be 947a a7bd
000002a0: ae36 18bf 8c90 51be e4c2 acbd f495 77bd
000002b0: 3e26 70bf 3e47 56be bbd4 10c0 012d 333d
000002c0: eef9 82bd c8d1 23bf 87b0 15be 93e7 1fbe
000002d0: b5d3 373e 7836 0ec0 ed51 593e 1d2e 3bc0
000002e0: 4283 1cc0 5b04 803e 2005 dbc0 7f7f 5e3e
000002f0: 1b1a 87be 5f8a 543e 8961 1fc0 3c59 4e3e
00000300: 59e6 78c0 4e4f 6b3e b451 1e3e de57 933e
00000310: c44a 5bbf f0b0 643e 04be 6b3e 7d0b 493e
00000320: c477 64be ce15 90be 02ab c9bd 25af 74c0
00000330: 32ea e4bd b675 9abe d3a0 64bf b144 cebe
00000340: 3765 03be 80ec 0cbf e079 2cbe b877 11c0
00000350: e8d4 82bd c397 edbd 639f 3bbf bdab 19be
00000360: ca43 04bf a815 30be 9d0d 48bf 22ae 2ebe
00000370: 7ccb 1abe fe3a 22be 88d7 18c0 eab0 5abc
00000380: 204b 97c0 44fe 40bd 2f42 ac3c 6d0f 783c
00000390: 141c ce3a b1a9 d0bd 6699 1bbd ee6a 0fbf
000003a0: 7878 96bd 8420 afbc 52a4 5ebf b3d4 cabf
000003b0: cfb5 e7bd 1e34 0dbf a8eb f4bd 3643 09bf
000003c0: b314 d9be d93b ecbd d269 a6be 7b99 2abf
000003d0: c674 0abe 932c edbc b429 0fbe 907b 53be
000003e0: 9cc5 3abe bf50 52bf fa00 53be 5c93 3dc0
000003f0: e0f6 91be 5993 b8bd 4249 e1bd c35b 80be

fc2.bias f4 [2227]
0.10166974 -1.8553408 -0.11432996 -0.14973308 -0.094943866 -0.26896718 -0.31338447 -0.11034359
-0.18642905 0.17686802 -0.2708136 -0.20914602 -0.22827694 -0.13886708 -0.18879703 -0.17712751
-0.025441753 -0.013921229 -0.14435911 -0.10983516 -0.1514926 -0.20656435 -0.16981341 -0.22403546
-0.04152385 -0.23654638 -0.22954966 -0.20869546 -0.16298649 0.07699107 -0.14063317 -0.25008926
-0.24923278 -0.2341863 -0.013017853 -0.120793864 -0.17057563 0.13219033 0.1495741 0.05545461
-0.028299404 0.14547862 -0.07968222 -0.21739674 -0.088924564 0.07674477 -0.1533297 -0.040959563
0.18301003 -0.21854822 0.16013522 -0.30900407 -0.12546982 -0.08711165 -0.07164266 -0.20030501
-0.17427848 -0.11244953 -0.15316653 -0.19917585 -0.22231688 -0.17215425 -0.06622555 -0.13863337
-0.09873706 -0.16191831 -0.15929206 -0.246685 -0.1793882 0.014376995 -0.0050259572 -0.07112048
-0.1259189 0.03112639 0.09295725 -0.28147852 0.08295209 0.04982205 -0.076657295 0.15932582
-0.1036198 0.017268766 -0.14197557 -0.33695737 -0.036744263 0.06740544 -0.05479793 -0.030879695
-0.19341838 -0.20692468 -0.12156337 -0.26542377 0.06111017 -0.24866357 -0.24890175 -0.1994997
-0.038647827 0.073168956 0.14917861 0.02991838 -0.11150209 -0.160203 -0.12043089 0.0039961487
-0.061795413 -0.17259537 -0.24736522 -0.1787225 -0.13670641 -0.16435565 -0.22336477 -0.10956884
-0.050237786 -0.040815152 -0.14472288 -0.15059759 0.101684704 -0.08538127 -0.06033966 -0.18773478
-0.082039766 -0.10407395 -0.13389729 -0.15346673 -0.1507218 -0.09368976 -0.057961136 -0.16404858
-0.15596743 -0.09077406 -0.069004975 -0.2056956 0.23113397 -0.02204989 -0.16995886 -0.050143424
-0.19612919 0.087694615 -0.19711539 0.012416207 -0.13582808 -0.26359722 -0.17634462 -0.17907016
-0.15908645 -0.108550645 -0.18626449 -0.22639066 -0.13923955 -0.10349574 -0.17315188 -0.060159188
-0.0043982947 -0.20306684 -0.09047773 0.034004383 -0.13952559 -0.1891006 -0.14990953 0.0320935
-0.06582976 -0.23410134 -0.24256654 -0.22991645 -0.16570535 -0.18782648 -0.2381178 -0.17333218
0.006882551 -0.11762564 -0.25321263 0.040465772 -0.08701522 -0.19313207 -0.24759504 -0.12563744
-0.07645816 -0.0646526 -0.20559058 -0.048513886 -0.1360797 -0.27418506 0.20449965 -0.05470821
-0.08866143 0.11873524 -0.12577818 0.122837454 -0.039219614 -0.20410661 -0.04595952 0.06798795
-0.028482748 -0.20928848 -0.07298193 -0.11845426 -0.16683485 -0.21483925 -0.21043408 -0.21315832
-0.046474647 -0.09506688 -0.2208343 -0.0077129165 -0.0061190226 -0.23592155 -0.094283566 -0.13888568
-0.0034342087 -0.16192912 -0.102895394 0.11696799 -0.12230291 -0.16259392 -0.006533716 -0.044764247
0.10234042 -0.16031586 -0.09059492 -0.21568328 -0.12207291 0.054438233 0.10706734 0.025787067
-0.028991358 -0.17446427 -0.1384995 -0.1430834 -0.043972164 -0.13649654 -0.09117902 0.10452334
-0.22333148 -0.17623582 -0.1808158 -0.23128119 -0.15938427 -0.096407145 -0.1763035 -0.22936195
-0.18917295 -0.13294658 -0.19471014 -0.25575587 0.10436472 0.04668838 -0.1384712 -0.112211674
-0.2024765 -0.061158746 -0.08986447 0.2508522 -0.17631882 -0.053901073 -0.12053085 -0.122918285
00000000: 3a38 d03d cf7b edbf d325 eabd a153 19be
00000010: ee71 c2bd 11b6 89be ee73 a0be d2fb e1bd
00000020: 42e7 3ebe e41c 353e 15a8 8abe 602a 56be
00000030: 6ec1 69be 2c33 0ebe 0254 41be ea60 35be
00000040: 396b d0bc de15 64bc e0d2 13be 42f1 e0bd
00000050: e020 1bbe 9b85 53be 91e3 2dbe 8d69 65be
00000060: ea14 2abd 3739 72be 110f 6bbe 43b4 55be
00000070: eee5 26be 7ead 9d3d 2402 10be b30b 80be
00000080: e136 7fbe 89ce 6fbe d548 55bc c662 f7bd
00000090: 61ab 2ebe e75c 073e f429 193e 6024 633d
000000a0: 27d4 e7bc 59f8 143e 6f30 a3bd 409d 5ebe
000000b0: 151e b6bd 5d2c 9d3d 7602 1dbe 37c5 27bd
000000c0: fb66 3b3e 1bcb 5fbe 7dfa 233e c835 9ebe
000000d0: 297b 00be 9867 b2bd 63b9 92bd c21c 4dbe
000000e0: 0f76 32be f04b e6bd b0d7 1cbe c1f4 4bbe
000000f0: 09a7 63be 3449 30be 43a1 87bd e8f5 0dbe
00000100: a836 cabd eacd 25be 751d 23be fe9a 7cbe
00000110: 8ab1 37be 7d8d 6b3c c9b0 a4bb 9da7 91bd
00000120: e2f0 00be c5fc fe3c 5f60 be3d f41d 90be
00000130: c9e2 a93d 3512 4c3d 80fe 9cbd 4f26 233e
00000140: 9e36 d4bd 3a77 8d3c 0b62 11be ad85 acbe
00000150: 2781 16bd dd0b 8a3d cb73 60bd 6af7 fcbc
00000160: 780f 46be 10e4 53be 37f6 f8bd a0e5 87be
00000170: a84e 7a3d aaa1 7ebe 1ae0 7ebe a649 4cbe
00000180: 2f4d 1ebd 9bd9 953d 47c2 183e 6417 f53c
00000190: 355b e4bd 410c 24be 78a4 f6bd 20f2 823b
000001a0: 301d 7dbd d7bc 30be 4f4d 7dbe 0803 37be
000001b0: c4fc 0bbe d94c 28be bcb9 64be a165 e0bd
000001c0: 23c6 4dbd ca2d 27bd 3c32 14be 4136 1abe
000001d0: 1240 d03d 60dc aebd b826 77bd 8c3d 40be
000001e0: 7704 a8bd b924 d5bd 5f1c 09be 6226 1dbe
000001f0: d156 1abe 6be0 bfbd a868 6dbd 5afc 27be
00000200: edb5 1fbe c0e7 b9bd 7b52 8dbd dea1 52be
00000210: 62ae 6c3e f9a1 b4bc b209 2ebe 3163 4dbd
00000220: 17d6 48be 3c99 b33d 9ed8 49be 596d 4b3c
00000230: 8416 0bbe 37f6 86be af93 34be 2b5e 37be
00000240: 8fe7 22be cd4f debd 1ebc 3ebe f4d2 67be
00000250: d094 0ebe 93f5 d3bd ba4e 31be 7b69 76bd
00000260: 921f 90bb c1f0 4fbe 634c b9bd 2e48 0b3d
00000270: ccdf 0ebe 96a3 41be e281 19be 7974 033d
00000280: c1d1 86bd 43b8 6fbe 5d63 78be 386f 6bbe
00000290: aaae 29be 9655 40be 27d5 73be fe7d 31be
000002a0: 0687 e13b b6e5 f0bd 16a5 81be 70bf 253d
000002b0: 0935 b2bd 6ac4 45be 8e89 7dbe 1aa7 00be
000002c0: 1996 9cbd 9568 84bd 5686 52be 7fb6 46bd
000002d0: 7a58 0bbe fc61 8cbe 5b68 513e b715 60bd
000002e0: 2094 b5bd 762b f33d ffcb 00be 3492 fb3d
000002f0: bfa4 20bd 5301 51be 0d40 3cbd 443d 8b3d
00000300: a754 e9bc b84f 56be 8d77 95bd 2698 f2bd
00000310: c1d6 2abe d2fe 5bbe 087c 57be 2d46 5abe
00000320: 335c 3ebd 6db2 c2bd 6322 62be a2bc fcbb
00000330: 1582 c8bb 6b95 71be be17 c1bd 0c38 0ebe
00000340: 7610 61bb bfd0 25be d2ba d2bd ea8c ef3d
00000350: f379 fabd 057f 26be c818 d6bb b75a 37bd
00000360: db97 d13d d729 24be d489 b9bd 14dc 5cbe
00000370: 5d01 fabd a0fa 5e3d 1f46 db3d 663f d33c
00000380: 497f edbc c3a6 32be d0d2 0dbe 7484 12be
00000390: 281c 34bd c0c5 0bbe 11bc babd 5510 d63d
000003a0: 02b1 64be 2a77 34be c727 39be fad4 6cbe
000003b0: a135 23be 1c71 c5bd e888 34be dcdd 6abe
000003c0: 8eb6 41be 2623 08be 1862 47be 6ff2 82be
000003d0: 2cbd d53d 513c 3f3d 65cb 0dbe 3ccf e5bd
000003e0: 0056 4fbe 9881 7abd dd0a b8bd b36f 803e
000003f0: ec8c 34be 5fc7 5cbd e1d8 f6bd 95bc fbbd
